…
        min_scale: 0.3
        max_scale: 1
        min_aspect_ratio: 0.5
        max_aspect_ratio: 2
      }
      sample_constraint {
        min_jaccard_overlap: 0.9
      }
      max_sample: 1
      max_trials: 50
    }
    batch_sampler {
      sampler {
        min_scale: 0.3
        max_scale: 1
        min_aspect_ratio: 0.5
        max_aspect_ratio: 2
      }
      sample_constraint {
        max_jaccard_overlap: 1
      }
      max_sample: 1
      max_trials: 50
    }
    label_map_file: "/home/qif/data/meter_detection/labelmap_meter.prototxt"
  }
}
layer {
  name: "conv1_1"
  type: "Convolution"
  bottom: "data"
  top: "conv1_1"
  param {
    lr_mult: 1
    decay_mult: 1
  }
  param {
    lr_mult: 2
    decay_mult: 0
  }
  convolution_param {
    num_output: 64
    pad: 1
    kernel_size: 3
    weight_filler {
      type: "xavier"
    }
    bias_filler {
      type: "constant"
      value: 0
    }
  }
}
layer {
  name: "relu1_1"
  type: "ReLU"
  bottom: "conv1_1"
  top: "conv1_1"
}
layer {
  name: "conv1_2"
  type: "Convolution"
  bottom: "conv1_1"
  top: "conv1_2"
  param {
    lr_mult: 1
    decay_mult: 1
  }
  param {
    lr_mult: 2
    decay_mult: 0
  }
  convolution_param {
    num_output: 64
    pad: 1
    kernel_size: 3
    weight_filler {
      type: "xavier"
    }
    bias_filler {
      type: "constant"
      value: 0
    }
  }
}
layer {
  name: "relu1_2"
  type: "ReLU"
  bottom: "conv1_2"
  top: "conv1_2"
}
layer {
  name: "pool1"
  type: "Pooling"
  bottom: "conv1_2"
  top: "pool1"
  pooling_param {
    pool: MAX
    kernel_size: 2
    stride: 2
  }
}
layer {
  name: "conv2_1"
  type: "Convolution"
  bottom: "pool1"
  top: "conv2_1"
  param {
    lr_mult: 1
    decay_mult: 1
  }
  param {
    lr_mult: 2
    decay_mult: 0
  }
  convolution_param {
    num_output: 128
    pad: 1
    kernel_size: 3
    weight_filler {
      type: "xavier"
    }
    bias_filler {
      type: "constant"
      value: 0
    }
  }
}
layer {
  name: "relu2_1"
  type: "ReLU"
  bottom: "conv2_1"
  top: "conv2_1"
}
layer {
  name: "conv2_2"
  type: "Convolution"
  bottom: "conv2_1"
  top: "conv2_2"
  param {
    lr_mult: 1
    decay_mult: 1
  }
  param {
    lr_mult: 2
    decay_mult: 0
  }
  convolution_param {
    num_output: 128
    pad: 1
    kernel_size: 3
    weight_filler {
      type: "xavier"
    }
    bias_filler {
      type: "constant"
      value: 0
    }
  }
}
layer {
  name: "relu2_2"
  type: "ReLU"
  bottom: "conv2_2"
  top: "conv2_2"
}
layer {
  name: "pool2"
  type: "Pooling"
  bottom: "conv2_2"
  top: "pool2"
  pooling_param {
    pool: MAX
    kernel_size: 2
    stride: 2
  }
}
layer {
  name: "conv3_1"
  type: "Convolution"
  bottom: "pool2"
  top: "conv3_1"
  param {
    lr_mult: 1
    decay_mult: 1
  }
  param {
    lr_mult: 2
    decay_mult: 0
  }
  convolution_param {
    num_output: 256
    pad: 1
    kernel_size: 3
    weight_filler {
      type: "xavier"
    }
    bias_filler {
      type: "constant"
      value: 0
    }
  }
}
layer {
  name: "relu3_1"
  type: "ReLU"
  bottom: "conv3_1"
  top: "conv3_1"
}
layer {
  name: "conv3_2"
  type: "Convolution"
  bottom: "conv3_1"
  top: "conv3_2"
  param {
    lr_mult: 1
    decay_mult: 1
  }
  param {
    lr_mult: 2
    decay_mult: 0
  }
  convolution_param {
    num_output: 256
    pad: 1
    kernel_size: 3
    weight_filler {
      type: "xavier"
    }
    bias_filler {
      type: "constant"
      value: 0
    }
  }
}
layer {
  name: "relu3_2"
  type: "ReLU"
  bottom: "conv3_2"
  top: "conv3_2"
}
layer {
  name: "conv3_3"
  type: "Convolution"
  bottom: "conv3_2"
  top: "conv3_3"
  param {
    lr_mult: 1
    decay_mult: 1
  }
  param {
    lr_mult: 2
    decay_mult: 0
  }
  convolution_param {
    num_output: 256
    pad: 1
    kernel_size: 3
    weight_filler {
      type: "xavier"
    }
    bias_filler {
      type: "constant"
      value: 0
    }
  }
}
layer {
  name: "relu3_3"
  type: "ReLU"
  bottom: "conv3_3"
  top: "conv3_3"
}
layer {
  name: "pool3"
  type: "Pooling"
  bottom: "conv3_3"
  top: "pool3"
  pooling_param {
    pool: MAX
    kernel_size: 2
    stride: 2
  }
}
layer {
  name: "conv4_1"
  type: "Convolution"
  bottom: "pool3"
  top: "conv4_1"
  param {
    lr_mult: 1
    decay_mult: 1
  }
  param {
    lr_mult: 2
    decay_mult: 0
  }
  convolution_param {
    num_output: 512
    pad: 1
    kernel_size: 3
    weight_filler {
      type: "xavier"
    }
    bias_filler {
      type: "constant"
      value: 0
    }
  }
}
layer {
  name: "relu4_1"
  type: "ReLU"
  bottom: "conv4_1"
  top: "conv4_1"
}
layer {
  name: "conv4_2"
  type: "Convolution"
  bottom: "conv4_1"
  top: "conv4_2"
  param {
    lr_mult: 1
    decay_mult: 1
  }
  param {
    lr_mult: 2
    decay_mult: 0
  }
  convolution_param {
    num_output: 512
    pad: 1
    kernel_size: 3
    weight_filler {
      type: "xavier"
    }
    bias_filler {
      type: "constant"
      value: 0
    }
  }
}
layer {
  name: "relu4_2"
  type: "ReLU"
  bottom: "conv4_2"
  top: "conv4_2"
}
layer {
  name: "conv4_3"
  type: "Convolution"
  bottom: "conv4_2"
  top: "conv4_3"
  param {
    lr_mult: 1
    decay_mult: 1
  }
  param {
    lr_mult: 2
    decay_mult: 0
  }
  convolution_param {
    num_output: 512
    pad: 1
    kernel_size: 3
    weight_filler {
      type: "xavier"
    }
    bias_filler {
      type: "constant"
      value: 0
    }
  }
}
layer {
  name: "relu4_3"
  type: "ReLU"
  bottom: "conv4_3"
  top: "conv4_3"
}
layer {
  name: "pool4"
  type: "Pooling"
  bottom: "conv4_3"
  top: "pool4"
  pooling_param {
    pool: MAX
    kernel_size: 2
    stride: 2
  }
}
layer {
  name: "conv5_1"
  type: "Convolution"
  bottom: "pool4"
  top: "conv5_1"
  param {
    lr_mult: 1
    decay_mult: 1
  }
  param {
    lr_mult: 2
    decay_mult: 0
  }
  convolution_param {
    num_output: 512
    pad: 1
    kernel_size: 3
    weight_filler {
      type: "xavier"
    }
    bias_filler {
      type: "constant"
      value: 0
    }
    dilation: 1
  }
}
layer {
  name: "relu5_1"
  type: "ReLU"
  bottom: "conv5_1"
  top: "conv5_1"
}
layer {
  name: "conv5_2"
  type: "Convolution"
  bottom: "conv5_1"
  top: "conv5_2"
  param {
    lr_mult: 1
    decay_mult: 1
  }
  param {
    lr_mult: 2
    decay_mult: 0
  }
  convolution_param {
    num_output: 512
    pad: 1
    kernel_size: 3
    weight_filler {
      type: "xavier"
    }
    bias_filler {
      type: "constant"
      value: 0
    }
    dilation: 1
  }
}
layer {
  name: "relu5_2"
  type: "ReLU"
  bottom: "conv5_2"
  top: "conv5_2"
}
layer {
  name: "conv5_3"
  type: "Convolution"
  bottom: "conv5_2"
  top: "conv5_3"
  param {
    lr_mult: 1
    decay_mult: 1
  }
  param {
    lr_mult: 2
    decay_mult: 0
  }
  convolution_param {
    num_output: 512
    pad: 1
    kernel_size: 3
    weight_filler {
      type: "xavier"
    }
    bias_filler {
      type: "constant"
      value: 0
    }
    dilation: 1
  }
}
layer {
  name: "relu5_3"
  type: "ReLU"
  bottom: "conv5_3"
  top: "conv5_3"
}
layer {
  name: "pool5"
  type: "Pooling"
  bottom: "conv5_3"
  top: "pool5"
  pooling_param {
    pool: MAX
    kernel_size: 3
    stride: 1
    pad: 1
  }
}
layer {
  name: "fc6"
  type: "Convolution"
  bottom: "pool5"
  top: "fc6"
  param {
    lr_mult: 1
    decay_mult: 1
  }
  param {
    lr_mult: 2
    decay_mult: 0
  }
  convolution_param {
    num_output: 1024
    pad: 6
    kernel_size: 3
    weight_filler {
      type: "xavier"
    }
    bias_filler {
      type: "constant"
      value: 0
    }
    dilation: 6
  }
}
layer {
  name: "relu6"
  type: "ReLU"
  bottom: "fc6"
  top: "fc6"
}
layer {
  name: "fc7"
  type: "Convolution"
  bottom: "fc6"
  top: "fc7"
  param {
    lr_mult: 1
    decay_mult: 1
  }
  param {
    lr_mult: 2
    decay_mult: 0
  }
  convolution_param {
    num_output: 1024
    kernel_size: 1
    weight_filler {
      type: "xavier"
    }
    bias_filler {
      type: "constant"
      value: 0
    }
  }
}
layer {
  name: "relu7"
  type: "ReLU"
  bottom: "fc7"
  top: "fc7"
}
layer {
  name: "conv6_1"
  type: "Convolution"
  bottom: "fc7"
  top: "conv6_1"
  param {
    lr_mult: 1
    decay_mult: 1
  }
  param {
    lr_mult: 2
    decay_mult: 0
  }
  convolution_param {
    num_output: 256
    pad: 0
    kernel_size: 1
    stride: 1
    weight_filler {
      type: "xavier"
    }
    bias_filler {
      type: "constant"
      value: 0
    }
  }
}
layer {
  name: "conv6_1_relu"
  type: "ReLU"
  bottom: "conv6_1"
  top: "conv6_1"
}
layer {
  name: "conv6_2"
  type: "Convolution"
  bottom: "conv6_1"
  top: "conv6_2"
  param {
    lr_mult: 1
    decay_mult: 1
  }
  param {
    lr_mult: 2
    decay_mult: 0
  }
  convolution_param {
    num_output: 512
    pad: 1
    kernel_size: 3
    stride: 2
    weight_filler {
      type: "xavier"
    }
    bias_filler {
      type: "constant"
      value: 0
    }
  }
}
layer {
  name: "conv6_2_relu"
  type: "ReLU"
  bottom: "conv6_2"
  top: "conv6_2"
}
layer {
  name: "conv7_1"
  type: "Convolution"
  bottom: "conv6_2"
  top: "conv7_1"
  param {
    lr_mult: 1
    decay_mult: 1
  }
  param {
    lr_mult: 2
    decay_mult: 0
  }
  convolution_param {
    num_output: 128
    pad: 0
    kernel_size: 1
    stride: 1
    weight_filler {
      type: "xavier"
    }
    bias_filler {
      type: "constant"
      value: 0
    }
  }
}
layer {
  name: "conv7_1_relu"
  type: "ReLU"
  bottom: "conv7_1"
  top: "conv7_1"
}
layer {
  name: "conv7_2"
  type: "Convolution"
  bottom: "conv7_1"
  top: "conv7_2"
  param {
    lr_mult: 1
    decay_mult: 1
  }
  param {
    lr_mult: 2
    decay_mult: 0
  }
  convolution_param {
    num_output: 256
    pad: 1
    kernel_size: 3
    stride: 2
    weight_filler {
      type: "xavier"
    }
    bias_filler {
      type: "constant"
      value: 0
    }
  }
}
layer {
  name: "conv7_2_relu"
  type: "ReLU"
  bottom: "conv7_2"
  top: "conv7_2"
}
layer {
  name: "conv8_1"
  type: "Convolution"
  bottom: "conv7_2"
  top: "conv8_1"
  param {
    lr_mult: 1
    decay_mult: 1
  }
  param {
    lr_mult: 2
    decay_mult: 0
  }
  convolution_param {
    num_output: 128
    pad: 0
    kernel_size: 1
    stride: 1
    weight_filler {
      type: "xavier"
    }
    bias_filler {
      type: "constant"
      value: 0
    }
  }
}
layer {
  name: "conv8_1_relu"
  type: "ReLU"
  bottom: "conv8_1"
  top: "conv8_1"
}
layer {
  name: "conv8_2"
  type: "Convolution"
  bottom: "conv8_1"
  top: "conv8_2"
  param {
    lr_mult: 1
    decay_mult: 1
  }
  param {
    lr_mult: 2
    decay_mult: 0
  }
  convolution_param {
    num_output: 256
    pad: 0
    kernel_size: 3
    stride: 1
    weight_filler {
      type: "xavier"
    }
    bias_filler {
      type: "constant"
      value: 0
    }
  }
}
layer {
  name: "conv8_2_relu"
  type: "ReLU"
  bottom: "conv8_2"
  top: "conv8_2"
}
layer {
  name: "conv9_1"
  type: "Convolution"
  bottom: "conv8_2"
  top: "conv9_1"
  param {
    lr_mult: 1
    decay_mult: 1
  }
  param {
    lr_mult: 2
    decay_mult: 0
  }
  convolution_param {
    num_output: 128
    pad: 0
    kernel_size: 1
    stride: 1
    weight_filler {
      type: "xavier"
    }
    bias_filler {
      type: "constant"
      value: 0
    }
  }
}
layer {
  name: "conv9_1_relu"
  type: "ReLU"
  bottom: "conv9_1"
  top: "conv9_1"
}
layer {
  name: "conv9_2"
  type: "Convolution"
  bottom: "conv9_1"
  top: "conv9_2"
  param {
    lr_mult: 1
    decay_mult: 1
  }
  param {
    lr_mult: 2
    decay_mult: 0
  }
  convolution_param {
    num_output: 256
    pad: 0
    kernel_size: 3
    stride: 1
    weight_filler {
      type: "xavier"
    }
    bias_filler {
      type: "constant"
      value: 0
    }
  }
}
layer {
  name: "conv9_2_relu"
  type: "ReLU"
  bottom: "conv9_2"
  top: "conv9_2"
}
layer {
  name: "conv4_3_norm"
  type: "Normalize"
  bottom: "conv4_3"
  top: "conv4_3_norm"
  norm_param {
    across_spatial: false
    scale_filler {
      type: "constant"
      value: 20
    }
    channel_shared: false
  }
}
layer {
  name: "conv4_3_norm_mbox_loc"
  type: "Convolution"
  bottom: "conv4_3_norm"
  top: "conv4_3_norm_mbox_loc"
  param {
    lr_mult: 1
    decay_mult: 1
  }
  param {
    lr_mult: 2
    decay_mult: 0
  }
  convolution_param {
    num_output: 16
    pad: 1
    kernel_size: 3
    stride: 1
    weight_filler {
      type: "xavier"
    }
    bias_filler {
      type: "constant"
      value: 0
    }
  }
}
layer {
  name: "conv4_3_norm_mbox_loc_perm"
  type: "Permute"
  bottom: "conv4_3_norm_mbox_loc"
  top: "conv4_3_norm_mbox_loc_perm"
  permute_param {
    order: 0
    order: 2
    order: 3
    order: 1
  }
}
layer {
  name: "conv4_3_norm_mbox_loc_flat"
  type: "Flatten"
  bottom: "conv4_3_norm_mbox_loc_perm"
  top: "conv4_3_norm_mbox_loc_flat"
  flatten_param {
    axis: 1
  }
}
layer {
  name: "conv4_3_norm_mbox_conf"
  type: "Convolution"
  bottom: "conv4_3_norm"
  top: "conv4_3_norm_mbox_conf"
  param {
    lr_mult: 1
    decay_mult: 1
  }
  param {
    lr_mult: 2
    decay_mult: 0
  }
  convolution_param {
    num_output: 8
    pad: 1
    kernel_size: 3
    stride: 1
    weight_filler {
      type: "xavier"
    }
    bias_filler {
      type: "constant"
      value: 0
    }
  }
}
layer {
  name: "conv4_3_norm_mbox_conf_perm"
  type: "Permute"
  bottom: "conv4_3_norm_mbox_conf"
  top: "conv4_3_norm_mbox_conf_perm"
  permute_param {
    order: 0
    order: 2
    order: 3
    order: 1
  }
}
layer {
  name: "conv4_3_norm_mbox_conf_flat"
  type: "Flatten"
  bottom: "conv4_3_norm_mbox_conf_perm"
  top: "conv4_3_norm_mbox_conf_flat"
  flatten_param {
    axis: 1
  }
}
layer {
  name: "conv4_3_norm_mbox_priorbox"
  type: "PriorBox"
  bottom: "conv4_3_norm"
  bottom: "data"
  top: "conv4_3_norm_mbox_priorbox"
  prior_box_param {
    min_size: 15.36
    max_size: 51.2
    aspect_ratio: 2
    flip: true
    clip: false
    variance: 0.1
    variance: 0.1
    variance: 0.2
    variance: 0.2
    step: 8
    offset: 0.5
  }
}
layer {
  name: "fc7_mbox_loc"
  type: "Convolution"
  bottom: "fc7"
  top: "fc7_mbox_loc"
  param {
    lr_mult: 1
    decay_mult: 1
  }
  param {
    lr_mult: 2
    decay_mult: 0
  }
  convolution_param {
    num_output: 24
    pad: 1
    kernel_size: 3
    stride: 1
    weight_filler {
      type: "xavier"
    }
    bias_filler {
      type: "constant"
      value: 0
    }
  }
}
layer {
  name: "fc7_mbox_loc_perm"
  type: "Permute"
  bottom: "fc7_mbox_loc"
  top: "fc7_mbox_loc_perm"
  permute_param {
    order: 0
    order: 2
    order: 3
    order: 1
  }
}
layer {
  name: "fc7_mbox_loc_flat"
  type: "Flatten"
  bottom: "fc7_mbox_loc_perm"
  top: "fc7_mbox_loc_flat"
  flatten_param {
    axis: 1
  }
}
layer {
  name: "fc7_mbox_conf"
  type: "Convolution"
  bottom: "fc7"
  top: "fc7_mbox_conf"
  param {
    lr_mult: 1
    decay_mult: 1
  }
  param {
    lr_mult: 2
    decay_mult: 0
  }
  convolution_param {
    num_output: 12
    pad: 1
    kernel_size: 3
    stride: 1
    weight_filler {
      type: "xavier"
    }
    bias_filler {
      type: "constant"
      value: 0
    }
  }
}
layer {
  name: "fc7_mbox_conf_perm"
  type: "Permute"
  bottom: "fc7_mbox_conf"
  top: "fc7_mbox_conf_perm"
  permute_param {
    order: 0
    order: 2
    order: 3
    order: 1
  }
}
layer {
  name: "fc7_mbox_conf_flat"
  type: "Flatten"
  bottom: "fc7_mbox_conf_perm"
  top: "fc7_mbox_conf_flat"
  flatten_param {
    axis: 1
  }
}
layer {
  name: "fc7_mbox_priorbox"
  type: "PriorBox"
  bottom: "fc7"
  bottom: "data"
  top: "fc7_mbox_priorbox"
  prior_box_param {
    min_size: 51.2
    max_size: 153.6
    aspect_ratio: 2
    aspect_ratio: 3
    flip: true
    clip: false
    variance: 0.1
    variance: 0.1
    variance: 0.2
    variance: 0.2
    step: 16
    offset: 0.5
  }
}
layer {
  name: "conv6_2_mbox_loc"
  type: "Convolution"
  bottom: "conv6_2"
  top: "conv6_2_mbox_loc"
  param {
    lr_mult: 1
    decay_mult: 1
  }
  param {
    lr_mult: 2
    decay_mult: 0
  }
  convolution_param {
    num_output: 24
    pad: 1
    kernel_size: 3
    stride: 1
    weight_filler {
      type: "xavier"
    }
    bias_filler {
      type: "constant"
      value: 0
    }
  }
}
layer {
  name: "conv6_2_mbox_loc_perm"
  type: "Permute"
  bottom: "conv6_2_mbox_loc"
  top: "conv6_2_mbox_loc_perm"
  permute_param {
    order: 0
    order: 2
    order: 3
    order: 1
  }
}
layer {
  name: "conv6_2_mbox_loc_flat"
  type: "Flatten"
  bottom: "conv6_2_mbox_loc_perm"
  top: "conv6_2_mbox_loc_flat"
  flatten_param {
    axis: 1
  }
}
layer {
  name: "conv6_2_mbox_conf"
  type: "Convolution"
  bottom: "conv6_2"
  top: "conv6_2_mbox_conf"
  param {
    lr_mult: 1
    decay_mult: 1
  }
  param {
    lr_mult: 2
    decay_mult: 0
  }
  convolution_param {
    num_output: 12
    pad: 1
    kernel_size: 3
    stride: 1
    weight_filler {
      type: "xavier"
    }
    bias_filler {
      type: "constant"
      value: 0
    }
  }
}
layer {
  name: "conv6_2_mbox_conf_perm"
  type: "Permute"
  bottom: "conv6_2_mbox_conf"
  top: "conv6_2_mbox_conf_perm"
  permute_param {
    order: 0
    order: 2
    order: 3
    order: 1
  }
}
layer {
  name: "conv6_2_mbox_conf_flat"
  type: "Flatten"
  bottom: "conv6_2_mbox_conf_perm"
  top: "conv6_2_mbox_conf_flat"
  flatten_param {
    axis: 1
  }
}
layer {
  name: "conv6_2_mbox_priorbox"
  type: "PriorBox"
  bottom: "conv6_2"
  bottom: "data"
  top: "conv6_2_mbox_priorbox"
  prior_box_param {
    min_size: 153.6
    max_size: 256
    aspect_ratio: 2
    aspect_ratio: 3
    flip: true
    clip: false
    variance: 0.1
    variance: 0.1
    variance: 0.2
    variance: 0.2
    step: 32
    offset: 0.5
  }
}
layer {
  name: "conv7_2_mbox_loc"
  type: "Convolution"
  bottom: "conv7_2"
  top: "conv7_2_mbox_loc"
  param {
    lr_mult: 1
    decay_mult: 1
  }
  param {
    lr_mult: 2
    decay_mult: 0
  }
  convolution_param {
    num_output: 24
    pad: 1
    kernel_size: 3
    stride: 1
    weight_filler {
      type: "xavier"
    }
    bias_filler {
      type: "constant"
      value: 0
    }
  }
}
layer {
  name: "conv7_2_mbox_loc_perm"
  type: "Permute"
  bottom: "conv7_2_mbox_loc"
  top: "conv7_2_mbox_loc_perm"
  permute_param {
    order: 0
    order: 2
    order: 3
    order: 1
  }
}
layer {
  name: "conv7_2_mbox_loc_flat"
  type: "Flatten"
  bottom: "conv7_2_mbox_loc_perm"
  top: "conv7_2_mbox_loc_flat"
  flatten_param {
    axis: 1
  }
}
layer {
  name: "conv7_2_mbox_conf"
  type: "Convolution"
  bottom: "conv7_2"
  top: "conv7_2_mbox_conf"
  param {
    lr_mult: 1
    decay_mult: 1
  }
  param {
    lr_mult: 2
    decay_mult: 0
  }
  convolution_param {
    num_output: 12
    pad: 1
    kernel_size: 3
    stride: 1
    weight_filler {
      type: "xavier"
    }
    bias_filler {
      type: "constant"
      value: 0
    }
  }
}
layer {
  name: "conv7_2_mbox_conf_perm"
  type: "Permute"
  bottom: "conv7_2_mbox_conf"
  top: "conv7_2_mbox_conf_perm"
  permute_param {
    order: 0
    order: 2
    order: 3
    order: 1
  }
}
layer {
  name: "conv7_2_mbox_conf_flat"
  type: "Flatten"
  bottom: "conv7_2_mbox_conf_perm"
  top: "conv7_2_mbox_conf_flat"
  flatten_param {
    axis: 1
  }
}
layer {
  name: "conv7_2_mbox_priorbox"
  type: "PriorBox"
  bottom: "conv7_2"
  bottom: "data"
  top: "conv7_2_mbox_priorbox"
  prior_box_param {
    min_size: 256
    max_size: 358.4
    aspect_ratio: 2
    aspect_ratio: 3
    flip: true
    clip: false
    variance: 0.1
    variance: 0.1
    variance: 0.2
    variance: 0.2
    step: 64
    offset: 0.5
  }
}
layer {
  name: "conv8_2_mbox_loc"
  type: "Convolution"
  bottom: "conv8_2"
  top: "conv8_2_mbox_loc"
  param {
    lr_mult: 1
    decay_mult: 1
  }
  param {
    lr_mult: 2
    decay_mult: 0
  }
  convolution_param {
    num_output: 16
    pad: 1
    kernel_size: 3
    stride: 1
    weight_filler {
      type: "xavier"
    }
    bias_filler {
      type: "constant"
      value: 0
    }
  }
}
layer {
  name: "conv8_2_mbox_loc_perm"
  type: "Permute"
  bottom: "conv8_2_mbox_loc"
  top: "conv8_2_mbox_loc_perm"
  permute_param {
    order: 0
    order: 2
    order: 3
    order: 1
  }
}
layer {
  name: "conv8_2_mbox_loc_flat"
  type: "Flatten"
  bottom: "conv8_2_mbox_loc_perm"
  top: "conv8_2_mbox_loc_flat"
  flatten_param {
    axis: 1
  }
}
layer {
  name: "conv8_2_mbox_conf"
  type: "Convolution"
  bottom: "conv8_2"
  top: "conv8_2_mbox_conf"
  param {
    lr_mult: 1
    decay_mult: 1
  }
  param {
    lr_mult: 2
    decay_mult: 0
  }
  convolution_param {
    num_output: 8
    pad: 1
    kernel_size: 3
    stride: 1
    weight_filler {
      type: "xavier"
    }
    bias_filler {
      type: "constant"
      value: 0
    }
  }
}
layer {
  name: "conv8_2_mbox_conf_perm"
  type: "Permute"
  bottom: "conv8_2_mbox_conf"
  top: "conv8_2_mbox_conf_perm"
  permute_param {
    order: 0
    order: 2
    order: 3
    order: 1
  }
}
layer {
  name: "conv8_2_mbox_conf_flat"
  type: "Flatten"
  bottom: "conv8_2_mbox_conf_perm"
  top: "conv8_2_mbox_conf_flat"
  flatten_param {
    axis: 1
  }
}
layer {
  name: "conv8_2_mbox_priorbox"
  type: "PriorBox"
  bottom: "conv8_2"
  bottom: "data"
  top: "conv8_2_mbox_priorbox"
  prior_box_param {
    min_size: 358.4
    max_size: 460.8
    aspect_ratio: 2
    flip: true
    clip: false
    variance: 0.1
    variance: 0.1
    variance: 0.2
    variance: 0.2
    step: 128
    offset: 0.5
  }
}
layer {
  name: "conv9_2_mbox_loc"
  type: "Convolution"
  bottom: "conv9_2"
  top: "conv9_2_mbox_loc"
  param {
    lr_mult: 1
    decay_mult: 1
  }
  param {
    lr_mult: 2
    decay_mult: 0
  }
  convolution_param {
    num_output: 16
    pad: 1
    kernel_size: 3
    stride: 1
    weight_filler {
      type: "xavier"
    }
    bias_filler {
      type: "constant"
      value: 0
    }
  }
}
layer {
  name: "conv9_2_mbox_loc_perm"
  type: "Permute"
  bottom: "conv9_2_mbox_loc"
  top: "conv9_2_mbox_loc_perm"
  permute_param {
    order: 0
    order: 2
    order: 3
    order: 1
  }
}
layer {
  name: "conv9_2_mbox_loc_flat"
  type: "Flatten"
  bottom: "conv9_2_mbox_loc_perm"
  top: "conv9_2_mbox_loc_flat"
  flatten_param {
    axis: 1
  }
}
layer {
  name: "conv9_2_mbox_conf"
  type: "Convolution"
  bottom: "conv9_2"
  top: "conv9_2_mbox_conf"
  param {
    lr_mult: 1
    decay_mult: 1
  }
  param {
    lr_mult: 2
    decay_mult: 0
  }
  convolution_param {
    num_output: 8
    pad: 1
    kernel_size: 3
    stride: 1
    weight_filler {
      type: "xavier"
    }
    bias_filler {
      type: "constant"
      value: 0
    }
  }
}
layer {
  name: "conv9_2_mbox_conf_perm"
  type: "Permute"
  bottom: "conv9_2_mbox_conf"
  top: "conv9_2_mbox_conf_perm"
  permute_param {
    order: 0
    order: 2
    order: 3
    order: 1
  }
}
layer {
  name: "conv9_2_mbox_conf_flat"
  type: "Flatten"
  bottom: "conv9_2_mbox_conf_perm"
  top: "conv9_2_mbox_conf_flat"
  flatten_param {
    axis: 1
  }
}
layer {
  name: "conv9_2_mbox_priorbox"
  type: "PriorBox"
  bottom: "conv9_2"
  bottom: "data"
  top: "conv9_2_mbox_priorbox"
  prior_box_param {
    min_size: 460.8
    max_size: 563.2
    aspect_ratio: 2
    flip: true
    clip: false
    variance: 0.1
    variance: 0.1
    variance: 0.2
    variance: 0.2
    step: 256
    offset: 0.5
  }
}
layer {
  name: "mbox_loc"
  type: "Concat"
  bottom: "conv4_3_norm_mbox_loc_flat"
  bottom: "fc7_mbox_loc_flat"
  bottom: "conv6_2_mbox_loc_flat"
  bottom: "conv7_2_mbox_loc_flat"
  bottom: "conv8_2_mbox_loc_flat"
  bottom: "conv9_2_mbox_loc_flat"
  top: "mbox_loc"
  concat_param {
    axis: 1
  }
}
layer {
  name: "mbox_conf"
  type: "Concat"
  bottom: "conv4_3_norm_mbox_conf_flat"
  bottom: "fc7_mbox_conf_flat"
  bottom: "conv6_2_mbox_conf_flat"
  bottom: "conv7_2_mbox_conf_flat"
  bottom: "conv8_2_mbox_conf_flat"
  bottom: "conv9_2_mbox_conf_flat"
  top: "mbox_conf"
  concat_param {
    axis: 1
  }
}
layer {
  name: "mbox_priorbox"
  type: "Concat"
  bottom: "conv4_3_norm_mbox_priorbox"
  bottom: "fc7_mbox_priorbox"
  bottom: "conv6_2_mbox_priorbox"
  bottom: "conv7_2_mbox_priorbox"
  bottom: "conv8_2_mbox_priorbox"
  bottom: "conv9_2_mbox_priorbox"
  top: "mbox_priorbox"
  concat_param {
    axis: 2
  }
}
layer {
  name: "mbox_loss"
  type: "MultiBoxLoss"
  bottom: "mbox_loc"
  bottom: "mbox_conf"
  bottom: "mbox_priorbox"
  bottom: "label"
  top: "mbox_loss"
  include {
    phase: TRAIN
  }
  propagate_down: true
  propagate_down: true
  propagate_down: false
  propagate_down: false
  loss_param {
    normalization: VALID
  }
  multibox_loss_param {
    loc_loss_type: SMOOTH_L1
    conf_loss_type: SOFTMAX
    loc_weight: 1
    num_classes: 2
    share_location: true
    match_type: PER_PREDICTION
    overlap_threshold: 0.5
    use_prior_for_matching: true
    background_label_id: 0
    use_difficult_gt: true
    neg_pos_ratio: 3
    neg_overlap: 0.5
    code_type: CENTER_SIZE
    ignore_cross_boundary_bbox: false
    mining_type: MAX_NEGATIVE
  }
}
I0106 18:20:55.906888 32441 layer_factory.hpp:77] Creating layer data
I0106 18:20:55.906994 32441 net.cpp:100] Creating Layer data
I0106 18:20:55.907003 32441 net.cpp:408] data -> data
I0106 18:20:55.907052 32441 net.cpp:408] data -> label
I0106 18:20:55.907454 32458 db_lmdb.cpp:35] Opened lmdb /home/qif/data/meter_detection/lmdb/train_lmdb
I0106 18:20:55.915796 32441 annotated_data_layer.cpp:62] output data size: 8,3,512,512
I0106 18:20:55.945271 32441 net.cpp:150] Setting up data
I0106 18:20:55.945291 32441 net.cpp:157] Top shape: 8 3 512 512 (6291456)
I0106 18:20:55.945297 32441 net.cpp:157] Top shape: 1 1 1 8 (8)
I0106 18:20:55.945299 32441 net.cpp:165] Memory required for data: 25165856
I0106 18:20:55.945305 32441 layer_factory.hpp:77] Creating layer data_data_0_split
I0106 18:20:55.945317 32441 net.cpp:100] Creating Layer data_data_0_split
I0106 18:20:55.945322 32441 net.cpp:434] data_data_0_split <- data
I0106 18:20:55.945329 32441 net.cpp:408] data_data_0_split -> data_data_0_split_0
I0106 18:20:55.945336 32441 net.cpp:408] data_data_0_split -> data_data_0_split_1
I0106 18:20:55.945341 32441 net.cpp:408] data_data_0_split -> data_data_0_split_2
I0106 18:20:55.945345 32441 net.cpp:408] data_data_0_split -> data_data_0_split_3
I0106 18:20:55.945348 32441 net.cpp:408] data_data_0_split -> data_data_0_split_4
I0106 18:20:55.945353 32441 net.cpp:408] data_data_0_split -> data_data_0_split_5
I0106 18:20:55.945358 32441 net.cpp:408] data_data_0_split -> data_data_0_split_6
I0106 18:20:55.945422 32441 net.cpp:150] Setting up data_data_0_split
I0106 18:20:55.945426 32441 net.cpp:157] Top shape: 8 3 512 512 (6291456)
I0106 18:20:55.945428 32441 net.cpp:157] Top shape: 8 3 512 512 (6291456)
I0106 18:20:55.945431 32441 net.cpp:157] Top shape: 8 3 512 512 (6291456)
I0106 18:20:55.945432 32441 net.cpp:157] Top shape: 8 3 512 512 (6291456)
I0106 18:20:55.945434 32441 net.cpp:157] Top shape: 8 3 512 512 (6291456)
I0106 18:20:55.945436 32441 net.cpp:157] Top shape: 8 3 512 512 (6291456)
I0106 18:20:55.945438 32441 net.cpp:157] Top shape: 8 3 512 512 (6291456)
I0106 18:20:55.945441 32441 net.cpp:165] Memory required for data: 201326624
I0106 18:20:55.945442 32441 layer_factory.hpp:77] Creating layer conv1_1
I0106 18:20:55.945454 32441 net.cpp:100] Creating Layer conv1_1
I0106 18:20:55.945456 32441 net.cpp:434] conv1_1 <- data_data_0_split_0
I0106 18:20:55.945459 32441 net.cpp:408] conv1_1 -> conv1_1
I0106 18:20:55.989353 32459 blocking_queue.cpp:50] Waiting for data
I0106 18:20:56.332109 32441 net.cpp:150] Setting up conv1_1
I0106 18:20:56.332130 32441 net.cpp:157] Top shape: 8 64 512 512 (134217728)
I0106 18:20:56.332136 32441 net.cpp:165] Memory required for data: 738197536
I0106 18:20:56.332152 32441 layer_factory.hpp:77] Creating layer relu1_1
I0106 18:20:56.332159 32441 net.cpp:100] Creating Layer relu1_1
I0106 18:20:56.332161 32441 net.cpp:434] relu1_1 <- conv1_1
I0106 18:20:56.332165 32441 net.cpp:395] relu1_1 -> conv1_1 (in-place)
I0106 18:20:56.332433 32441 net.cpp:150] Setting up relu1_1
I0106 18:20:56.332440 32441 net.cpp:157] Top shape: 8 64 512 512 (134217728)
I0106 18:20:56.332444 32441 net.cpp:165] Memory required for data: 1275068448
I0106 18:20:56.332446 32441 layer_factory.hpp:77] Creating layer conv1_2
I0106 18:20:56.332454 32441 net.cpp:100] Creating Layer conv1_2
I0106 18:20:56.332456 32441 net.cpp:434] conv1_2 <- conv1_1
I0106 18:20:56.332460 32441 net.cpp:408] conv1_2 -> conv1_2
I0106 18:20:56.334193 32441 net.cpp:150] Setting up conv1_2
I0106 18:20:56.334203 32441 net.cpp:157] Top shape: 8 64 512 512 (134217728)
I0106 18:20:56.334206 32441 net.cpp:165] Memory required for data: 1811939360
I0106 18:20:56.334211 32441 layer_factory.hpp:77] Creating layer relu1_2
I0106 18:20:56.334216 32441 net.cpp:100] Creating Layer relu1_2
I0106 18:20:56.334218 32441 net.cpp:434] relu1_2 <- conv1_2
I0106 18:20:56.334221 32441 net.cpp:395] relu1_2 -> conv1_2 (in-place)
I0106 18:20:56.334434 32441 net.cpp:150] Setting up relu1_2
I0106 18:20:56.334441 32441 net.cpp:157] Top shape: 8 64 512 512 (134217728)
I0106 18:20:56.334444 32441 net.cpp:165] Memory required for data: 2348810272
I0106 18:20:56.334446 32441 layer_factory.hpp:77] Creating layer pool1
I0106 18:20:56.334452 32441 net.cpp:100] Creating Layer pool1
I0106 18:20:56.334455 32441 net.cpp:434] pool1 <- conv1_2
I0106 18:20:56.334457 32441 net.cpp:408] pool1 -> pool1
I0106 18:20:56.334491 32441 net.cpp:150] Setting up pool1
I0106 18:20:56.334508 32441 net.cpp:157] Top shape: 8 64 256 256 (33554432)
I0106 18:20:56.334512 32441 net.cpp:165] Memory required for data: 2483028000
I0106 18:20:56.334514 32441 layer_factory.hpp:77] Creating layer conv2_1
I0106 18:20:56.334519 32441 net.cpp:100] Creating Layer conv2_1
I0106 18:20:56.334522 32441 net.cpp:434] conv2_1 <- pool1
I0106 18:20:56.334525 32441 net.cpp:408] conv2_1 -> conv2_1
I0106 18:20:56.336650 32441 net.cpp:150] Setting up conv2_1
I0106 18:20:56.336659 32441 net.cpp:157] Top shape: 8 128 256 256 (67108864)
I0106 18:20:56.336663 32441 net.cpp:165] Memory required for data: 2751463456
I0106 18:20:56.336669 32441 layer_factory.hpp:77] Creating layer relu2_1
I0106 18:20:56.336675 32441 net.cpp:100] Creating Layer relu2_1
I0106 18:20:56.336678 32441 net.cpp:434] relu2_1 <- conv2_1
I0106 18:20:56.336680 32441 net.cpp:395] relu2_1 -> conv2_1 (in-place)
I0106 18:20:56.336980 32441 net.cpp:150] Setting up relu2_1
I0106 18:20:56.336987 32441 net.cpp:157] Top shape: 8 128 256 256 (67108864)
I0106 18:20:56.336992 32441 net.cpp:165] Memory required for data: 3019898912
I0106 18:20:56.336993 32441 layer_factory.hpp:77] Creating layer conv2_2
I0106 18:20:56.337002 32441 net.cpp:100] Creating Layer conv2_2
I0106 18:20:56.337003 32441 net.cpp:434] conv2_2 <- conv2_1
I0106 18:20:56.337007 32441 net.cpp:408] conv2_2 -> conv2_2
I0106 18:20:56.338665 32441 net.cpp:150] Setting up conv2_2
I0106 18:20:56.338672 32441 net.cpp:157] Top shape: 8 128 256 256 (67108864)
I0106 18:20:56.338676 32441 net.cpp:165] Memory required for data: 3288334368
I0106 18:20:56.338680 32441 layer_factory.hpp:77] Creating layer relu2_2
I0106 18:20:56.338685 32441 net.cpp:100] Creating Layer relu2_2
I0106 18:20:56.338687 32441 net.cpp:434] relu2_2 <- conv2_2
I0106 18:20:56.338690 32441 net.cpp:395] relu2_2 -> conv2_2 (in-place)
I0106 18:20:56.338982 32441 net.cpp:150] Setting up relu2_2
I0106 18:20:56.338989 32441 net.cpp:157] Top shape: 8 128 256 256 (67108864)
I0106 18:20:56.338992 32441 net.cpp:165] Memory required for data: 3556769824
I0106 18:20:56.338994 32441 layer_factory.hpp:77] Creating layer pool2
I0106 18:20:56.338999 32441 net.cpp:100] Creating Layer pool2
I0106 18:20:56.339002 32441 net.cpp:434] pool2 <- conv2_2
I0106 18:20:56.339005 32441 net.cpp:408] pool2 -> pool2
I0106 18:20:56.339030 32441 net.cpp:150] Setting up pool2
I0106 18:20:56.339032 32441 net.cpp:157] Top shape: 8 128 128 128 (16777216)
I0106 18:20:56.339035 32441 net.cpp:165] Memory required for data: 3623878688
I0106 18:20:56.339037 32441 layer_factory.hpp:77] Creating layer conv3_1
I0106 18:20:56.339042 32441 net.cpp:100] Creating Layer conv3_1
I0106 18:20:56.339044 32441 net.cpp:434] conv3_1 <- pool2
I0106 18:20:56.339047 32441 net.cpp:408] conv3_1 -> conv3_1
I0106 18:20:56.341779 32441 net.cpp:150] Setting up conv3_1
I0106 18:20:56.341787 32441 net.cpp:157] Top shape: 8 256 128 128 (33554432)
I0106 18:20:56.341791 32441 net.cpp:165] Memory required for data: 3758096416
I0106 18:20:56.341797 32441 layer_factory.hpp:77] Creating layer relu3_1
I0106 18:20:56.341800 32441 net.cpp:100] Creating Layer relu3_1
I0106 18:20:56.341802 32441 net.cpp:434] relu3_1 <- conv3_1
I0106 18:20:56.341810 32441 net.cpp:395] relu3_1 -> conv3_1 (in-place)
I0106 18:20:56.342885 32441 net.cpp:150] Setting up relu3_1
I0106 18:20:56.342895 32441 net.cpp:157] Top shape: 8 256 128 128 (33554432)
I0106 18:20:56.342898 32441 net.cpp:165] Memory required for data: 3892314144
I0106 18:20:56.342900 32441 layer_factory.hpp:77] Creating layer conv3_2
I0106 18:20:56.342908 32441 net.cpp:100] Creating Layer conv3_2
I0106 18:20:56.342911 32441 net.cpp:434] conv3_2 <- conv3_1
I0106 18:20:56.342916 32441 net.cpp:408] conv3_2 -> conv3_2
I0106 18:20:56.346803 32441 net.cpp:150] Setting up conv3_2
I0106 18:20:56.346812 32441 net.cpp:157] Top shape: 8 256 128 128 (33554432)
I0106 18:20:56.346817 32441 net.cpp:165] Memory required for data: 4026531872
I0106 18:20:56.346820 32441 layer_factory.hpp:77] Creating layer relu3_2
I0106 18:20:56.346825 32441 net.cpp:100] Creating Layer relu3_2
I0106 18:20:56.346843 32441 net.cpp:434] relu3_2 <- conv3_2
I0106 18:20:56.346846 32441 net.cpp:395] relu3_2 -> conv3_2 (in-place)
I0106 18:20:56.347151 32441 net.cpp:150] Setting up relu3_2
I0106 18:20:56.347158 32441 net.cpp:157] Top shape: 8 256 128 128 (33554432)
I0106 18:20:56.347162 32441 net.cpp:165] Memory required for data: 4160749600
I0106 18:20:56.347163 32441 layer_factory.hpp:77] Creating layer conv3_3
I0106 18:20:56.347173 32441 net.cpp:100] Creating Layer conv3_3
I0106 18:20:56.347175 32441 net.cpp:434] conv3_3 <- conv3_2
I0106 18:20:56.347179 32441 net.cpp:408] conv3_3 -> conv3_3
I0106 18:20:56.351095 32441 net.cpp:150] Setting up conv3_3
I0106 18:20:56.351105 32441 net.cpp:157] Top shape: 8 256 128 128 (33554432)
I0106 18:20:56.351109 32441 net.cpp:165] Memory required for data: 4294967328
I0106 18:20:56.351114 32441 layer_factory.hpp:77] Creating layer relu3_3
I0106 18:20:56.351117 32441 net.cpp:100] Creating Layer relu3_3
I0106 18:20:56.351119 32441 net.cpp:434] relu3_3 <- conv3_3
I0106 18:20:56.351123 32441 net.cpp:395] relu3_3 -> conv3_3 (in-place)
I0106 18:20:56.351331 32441 net.cpp:150] Setting up relu3_3
I0106 18:20:56.351337 32441 net.cpp:157] Top shape: 8 256 128 128 (33554432)
I0106 18:20:56.351341 32441 net.cpp:165] Memory required for data: 4429185056
I0106 18:20:56.351342 32441 layer_factory.hpp:77] Creating layer pool3
I0106 18:20:56.351347 32441 net.cpp:100] Creating Layer pool3
I0106 18:20:56.351349 32441 net.cpp:434] pool3 <- conv3_3
I0106 18:20:56.351353 32441 net.cpp:408] pool3 -> pool3
I0106 18:20:56.351377 32441 net.cpp:150] Setting up pool3
I0106 18:20:56.351380 32441 net.cpp:157] Top shape: 8 256 64 64 (8388608)
I0106 18:20:56.351383 32441 net.cpp:165] Memory required for data: 4462739488
I0106 18:20:56.351384 32441 layer_factory.hpp:77] Creating layer conv4_1
I0106 18:20:56.351389 32441 net.cpp:100] Creating Layer conv4_1
I0106 18:20:56.351392 32441 net.cpp:434] conv4_1 <- pool3
I0106 18:20:56.351394 32441 net.cpp:408] conv4_1 -> conv4_1
I0106 18:20:56.358781 32441 net.cpp:150] Setting up conv4_1
I0106 18:20:56.358795 32441 net.cpp:157] Top shape: 8 512 64 64 (16777216)
I0106 18:20:56.358814 32441 net.cpp:165] Memory required for data: 4529848352
I0106 18:20:56.358820 32441 layer_factory.hpp:77] Creating layer relu4_1
I0106 18:20:56.358839 32441 net.cpp:100] Creating Layer relu4_1
I0106 18:20:56.358841 32441 net.cpp:434] relu4_1 <- conv4_1
I0106 18:20:56.358845 32441 net.cpp:395] relu4_1 -> conv4_1 (in-place)
I0106 18:20:56.359159 32441 net.cpp:150] Setting up relu4_1
I0106 18:20:56.359166 32441 net.cpp:157] Top shape: 8 512 64 64 (16777216)
I0106 18:20:56.359169 32441 net.cpp:165] Memory required for data: 4596957216
I0106 18:20:56.359171 32441 layer_factory.hpp:77] Creating layer conv4_2
I0106 18:20:56.359179 32441 net.cpp:100] Creating Layer conv4_2
I0106 18:20:56.359182 32441 net.cpp:434] conv4_2 <- conv4_1
I0106 18:20:56.359185 32441 net.cpp:408] conv4_2 -> conv4_2
I0106 18:20:56.370234 32441 net.cpp:150] Setting up conv4_2
I0106 18:20:56.370250 32441 net.cpp:157] Top shape: 8 512 64 64 (16777216)
I0106 18:20:56.370255 32441 net.cpp:165] Memory required for data: 4664066080
I0106 18:20:56.370265 32441 layer_factory.hpp:77] Creating layer relu4_2
I0106 18:20:56.370270 32441 net.cpp:100] Creating Layer relu4_2
I0106 18:20:56.370272 32441 net.cpp:434] relu4_2 <- conv4_2
I0106 18:20:56.370302 32441 net.cpp:395] relu4_2 -> conv4_2 (in-place)
I0106 18:20:56.370591 32441 net.cpp:150] Setting up relu4_2
I0106 18:20:56.370597 32441 net.cpp:157] Top shape: 8 512 64 64 (16777216)
I0106 18:20:56.370615 32441 net.cpp:165] Memory required for data: 4731174944
I0106 18:20:56.370617 32441 layer_factory.hpp:77] Creating layer conv4_3
I0106 18:20:56.370626 32441 net.cpp:100] Creating Layer conv4_3
I0106 18:20:56.370631 32441 net.cpp:434] conv4_3 <- conv4_2
I0106 18:20:56.370636 32441 net.cpp:408] conv4_3 -> conv4_3
I0106 18:20:56.381111 32441 net.cpp:150] Setting up conv4_3
I0106 18:20:56.381127 32441 net.cpp:157] Top shape: 8 512 64 64 (16777216)
I0106 18:20:56.381131 32441 net.cpp:165] Memory required for data: 4798283808
I0106 18:20:56.381155 32441 layer_factory.hpp:77] Creating layer relu4_3
I0106 18:20:56.381160 32441 net.cpp:100] Creating Layer relu4_3
I0106 18:20:56.381163 32441 net.cpp:434] relu4_3 <- conv4_3
I0106 18:20:56.381166 32441 net.cpp:395] relu4_3 -> conv4_3 (in-place)
I0106 18:20:56.382133 32441 net.cpp:150] Setting up relu4_3
I0106 18:20:56.382139 32441 net.cpp:157] Top shape: 8 512 64 64 (16777216)
I0106 18:20:56.382143 32441 net.cpp:165] Memory required for data: 4865392672
I0106 18:20:56.382144 32441 layer_factory.hpp:77] Creating layer conv4_3_relu4_3_0_split
I0106 18:20:56.382150 32441 net.cpp:100] Creating Layer conv4_3_relu4_3_0_split
I0106 18:20:56.382153 32441 net.cpp:434] conv4_3_relu4_3_0_split <- conv4_3
I0106 18:20:56.382155 32441 net.cpp:408] conv4_3_relu4_3_0_split -> conv4_3_relu4_3_0_split_0
I0106 18:20:56.382158 32441 net.cpp:408] conv4_3_relu4_3_0_split -> conv4_3_relu4_3_0_split_1
I0106 18:20:56.382179 32441 net.cpp:150] Setting up conv4_3_relu4_3_0_split
I0106 18:20:56.382182 32441 net.cpp:157] Top shape: 8 512 64 64 (16777216)
I0106 18:20:56.382184 32441 net.cpp:157] Top shape: 8 512 64 64 (16777216)
I0106 18:20:56.382186 32441 net.cpp:165] Memory required for data: 4999610400
I0106 18:20:56.382187 32441 layer_factory.hpp:77] Creating layer pool4
I0106 18:20:56.382191 32441 net.cpp:100] Creating Layer pool4
I0106 18:20:56.382194 32441 net.cpp:434] pool4 <- conv4_3_relu4_3_0_split_0
I0106 18:20:56.382195 32441 net.cpp:408] pool4 -> pool4
I0106 18:20:56.382211 32441 net.cpp:150] Setting up pool4
I0106 18:20:56.382213 32441 net.cpp:157] Top shape: 8 512 32 32 (4194304)
I0106 18:20:56.382215 32441 net.cpp:165] Memory required for data: 5016387616
I0106 18:20:56.382217 32441 layer_factory.hpp:77] Creating layer conv5_1
I0106 18:20:56.382223 32441 net.cpp:100] Creating Layer conv5_1
I0106 18:20:56.382227 32441 net.cpp:434] conv5_1 <- pool4
I0106 18:20:56.382230 32441 net.cpp:408] conv5_1 -> conv5_1
I0106 18:20:56.395105 32441 net.cpp:150] Setting up conv5_1
I0106 18:20:56.395121 32441 net.cpp:157] Top shape: 8 512 32 32 (4194304)
I0106 18:20:56.395128 32441 net.cpp:165] Memory required for data: 5033164832
I0106 18:20:56.395133 32441 layer_factory.hpp:77] Creating layer relu5_1
I0106 18:20:56.395138 32441 net.cpp:100] Creating Layer relu5_1
I0106 18:20:56.395139 32441 net.cpp:434] relu5_1 <- conv5_1
I0106 18:20:56.395143 32441 net.cpp:395] relu5_1 -> conv5_1 (in-place)
I0106 18:20:56.395422 32441 net.cpp:150] Setting up relu5_1
I0106 18:20:56.395428 32441 net.cpp:157] Top shape: 8 512 32 32 (4194304)
I0106 18:20:56.395431 32441 net.cpp:165] Memory required for data: 5049942048
I0106 18:20:56.395433 32441 layer_factory.hpp:77] Creating layer conv5_2
I0106 18:20:56.395442 32441 net.cpp:100] Creating Layer conv5_2
I0106 18:20:56.395444 32441 net.cpp:434] conv5_2 <- conv5_1
I0106 18:20:56.395447 32441 net.cpp:408] conv5_2 -> conv5_2
I0106 18:20:56.406100 32441 net.cpp:150] Setting up conv5_2
I0106 18:20:56.406116 32441 net.cpp:157] Top shape: 8 512 32 32 (4194304)
I0106 18:20:56.406121 32441 net.cpp:165] Memory required for data: 5066719264
I0106 18:20:56.406126 32441 layer_factory.hpp:77] Creating layer relu5_2
I0106 18:20:56.406132 32441 net.cpp:100] Creating Layer relu5_2
I0106 18:20:56.406136 32441 net.cpp:434] relu5_2 <- conv5_2
I0106 18:20:56.406138 32441 net.cpp:395] relu5_2 -> conv5_2 (in-place)
I0106 18:20:56.406313 32441 net.cpp:150] Setting up relu5_2
I0106 18:20:56.406318 32441 net.cpp:157] Top shape: 8 512 32 32 (4194304)
I0106 18:20:56.406322 32441 net.cpp:165] Memory required for data: 5083496480
I0106 18:20:56.406323 32441 layer_factory.hpp:77] Creating layer conv5_3
I0106 18:20:56.406330 32441 net.cpp:100] Creating Layer conv5_3
I0106 18:20:56.406332 32441 net.cpp:434] conv5_3 <- conv5_2
I0106 18:20:56.406335 32441 net.cpp:408] conv5_3 -> conv5_3
I0106 18:20:56.418754 32441 net.cpp:150] Setting up conv5_3
I0106 18:20:56.418773 32441 net.cpp:157] Top shape: 8 512 32 32 (4194304)
I0106 18:20:56.418794 32441 net.cpp:165] Memory required for data: 5100273696
I0106 18:20:56.418819 32441 layer_factory.hpp:77] Creating layer relu5_3
I0106 18:20:56.418830 32441 net.cpp:100] Creating Layer relu5_3
I0106 18:20:56.418835 32441 net.cpp:434] relu5_3 <- conv5_3
I0106 18:20:56.418855 32441 net.cpp:395] relu5_3 -> conv5_3 (in-place)
I0106 18:20:56.419087 32441 net.cpp:150] Setting up relu5_3
I0106 18:20:56.419092 32441 net.cpp:157] Top shape: 8 512 32 32 (4194304)
I0106 18:20:56.419111 32441 net.cpp:165] Memory required for data: 5117050912
I0106 18:20:56.419113 32441 layer_factory.hpp:77] Creating layer pool5
I0106 18:20:56.419119 32441 net.cpp:100] Creating Layer pool5
I0106 18:20:56.419121 32441 net.cpp:434] pool5 <- conv5_3
I0106 18:20:56.419126 32441 net.cpp:408] pool5 -> pool5
I0106 18:20:56.419164 32441 net.cpp:150] Setting up pool5
I0106 18:20:56.419167 32441 net.cpp:157] Top shape: 8 512 32 32 (4194304)
I0106 18:20:56.419169 32441 net.cpp:165] Memory required for data: 5133828128
I0106 18:20:56.419171 32441 layer_factory.hpp:77] Creating layer fc6
I0106 18:20:56.419201 32441 net.cpp:100] Creating Layer fc6
I0106 18:20:56.419203 32441 net.cpp:434] fc6 <- pool5
I0106 18:20:56.419207 32441 net.cpp:408] fc6 -> fc6
I0106 18:20:56.439077 32441 net.cpp:150] Setting up fc6
I0106 18:20:56.439093 32441 net.cpp:157] Top shape: 8 1024 32 32 (8388608)
I0106 18:20:56.439098 32441 net.cpp:165] Memory required for data: 5167382560
I0106 18:20:56.439103 32441 layer_factory.hpp:77] Creating layer relu6
I0106 18:20:56.439108 32441 net.cpp:100] Creating Layer relu6
I0106 18:20:56.439111 32441 net.cpp:434] relu6 <- fc6
I0106 18:20:56.439116 32441 net.cpp:395] relu6 -> fc6 (in-place)
I0106 18:20:56.439584 32441 net.cpp:150] Setting up relu6
I0106 18:20:56.439592 32441 net.cpp:157] Top shape: 8 1024 32 32 (8388608)
I0106 18:20:56.439611 32441 net.cpp:165] Memory required for data: 5200936992
I0106 18:20:56.439615 32441 layer_factory.hpp:77] Creating layer fc7
I0106 18:20:56.439625 32441 net.cpp:100] Creating Layer fc7
I0106 18:20:56.439626 32441 net.cpp:434] fc7 <- fc6
I0106 18:20:56.439635 32441 net.cpp:408] fc7 -> fc7
I0106 18:20:56.445207 32441 net.cpp:150] Setting up fc7
I0106 18:20:56.445221 32441 net.cpp:157] Top shape: 8 1024 32 32 (8388608)
I0106 18:20:56.445225 32441 net.cpp:165] Memory required for data: 5234491424
I0106 18:20:56.445230 32441 layer_factory.hpp:77] Creating layer relu7
I0106 18:20:56.445235 32441 net.cpp:100] Creating Layer relu7
I0106 18:20:56.445237 32441 net.cpp:434] relu7 <- fc7
I0106 18:20:56.445241 32441 net.cpp:395] relu7 -> fc7 (in-place)
I0106 18:20:56.445420 32441 net.cpp:150] Setting up relu7
I0106 18:20:56.445425 32441 net.cpp:157] Top shape: 8 1024 32 32 (8388608)
I0106 18:20:56.445428 32441 net.cpp:165] Memory required for data: 5268045856
I0106 18:20:56.445430 32441 layer_factory.hpp:77] Creating layer fc7_relu7_0_split
I0106 18:20:56.445434 32441 net.cpp:100] Creating Layer fc7_relu7_0_split
I0106 18:20:56.445436 32441 net.cpp:434] fc7_relu7_0_split <- fc7
I0106 18:20:56.445438 32441 net.cpp:408] fc7_relu7_0_split -> fc7_relu7_0_split_0
I0106 18:20:56.445443 32441 net.cpp:408] fc7_relu7_0_split -> fc7_relu7_0_split_1
I0106 18:20:56.445448 32441 net.cpp:408] fc7_relu7_0_split -> fc7_relu7_0_split_2
I0106 18:20:56.445451 32441 net.cpp:408] fc7_relu7_0_split -> fc7_relu7_0_split_3
I0106 18:20:56.445479 32441 net.cpp:150] Setting up fc7_relu7_0_split
I0106 18:20:56.445482 32441 net.cpp:157] Top shape: 8 1024 32 32 (8388608)
I0106 18:20:56.445484 32441 net.cpp:157] Top shape: 8 1024 32 32 (8388608)
I0106 18:20:56.445487 32441 net.cpp:157] Top shape: 8 1024 32 32 (8388608)
I0106 18:20:56.445487 32441 net.cpp:157] Top shape: 8 1024 32 32 (8388608)
I0106 18:20:56.445489 32441 net.cpp:165] Memory required for data: 5402263584
I0106 18:20:56.445490 32441 layer_factory.hpp:77] Creating layer conv6_1
I0106 18:20:56.445497 32441 net.cpp:100] Creating Layer conv6_1
I0106 18:20:56.445498 32441 net.cpp:434] conv6_1 <- fc7_relu7_0_split_0
I0106 18:20:56.445502 32441 net.cpp:408] conv6_1 -> conv6_1
I0106 18:20:56.450073 32441 net.cpp:150] Setting up conv6_1
I0106 18:20:56.450126 32441 net.cpp:157] Top shape: 8 256 32 32 (2097152)
I0106 18:20:56.450132 32441 net.cpp:165] Memory required for data: 5410652192
I0106 18:20:56.450139 32441 layer_factory.hpp:77] Creating layer conv6_1_relu
I0106 18:20:56.450145 32441 net.cpp:100] Creating Layer conv6_1_relu
I0106 18:20:56.450147 32441 net.cpp:434] conv6_1_relu <- conv6_1
I0106 18:20:56.450153 32441 net.cpp:395] conv6_1_relu -> conv6_1 (in-place)
I0106 18:20:56.450568 32441 net.cpp:150] Setting up conv6_1_relu
I0106 18:20:56.450575 32441 net.cpp:157] Top shape: 8 256 32 32 (2097152)
I0106 18:20:56.450594 32441 net.cpp:165] Memory required for data: 5419040800
I0106 18:20:56.450596 32441 layer_factory.hpp:77] Creating layer conv6_2
I0106 18:20:56.450608 32441 net.cpp:100] Creating Layer conv6_2
I0106 18:20:56.450611 32441 net.cpp:434] conv6_2 <- conv6_1
I0106 18:20:56.450615 32441 net.cpp:408] conv6_2 -> conv6_2
I0106 18:20:56.457473 32441 net.cpp:150] Setting up conv6_2
I0106 18:20:56.457489 32441 net.cpp:157] Top shape: 8 512 16 16 (1048576)
I0106 18:20:56.457492 32441 net.cpp:165] Memory required for data: 5423235104
I0106 18:20:56.457500 32441 layer_factory.hpp:77] Creating layer conv6_2_relu
I0106 18:20:56.457506 32441 net.cpp:100] Creating Layer conv6_2_relu
I0106 18:20:56.457509 32441 net.cpp:434] conv6_2_relu <- conv6_2
I0106 18:20:56.457512 32441 net.cpp:395] conv6_2_relu -> conv6_2 (in-place)
I0106 18:20:56.457963 32441 net.cpp:150] Setting up conv6_2_relu
I0106 18:20:56.457970 32441 net.cpp:157] Top shape: 8 512 16 16 (1048576)
I0106 18:20:56.457989 32441 net.cpp:165] Memory required for data: 5427429408
I0106 18:20:56.457991 32441 layer_factory.hpp:77] Creating layer conv6_2_conv6_2_relu_0_split
I0106 18:20:56.457996 32441 net.cpp:100] Creating Layer conv6_2_conv6_2_relu_0_split
I0106 18:20:56.457999 32441 net.cpp:434] conv6_2_conv6_2_relu_0_split <- conv6_2
I0106 18:20:56.458003 32441 net.cpp:408] conv6_2_conv6_2_relu_0_split -> conv6_2_conv6_2_relu_0_split_0
I0106 18:20:56.458010 32441 net.cpp:408] conv6_2_conv6_2_relu_0_split -> conv6_2_conv6_2_relu_0_split_1
I0106 18:20:56.458014 32441 net.cpp:408] conv6_2_conv6_2_relu_0_split -> conv6_2_conv6_2_relu_0_split_2
I0106 18:20:56.458019 32441 net.cpp:408] conv6_2_conv6_2_relu_0_split -> conv6_2_conv6_2_relu_0_split_3
I0106 18:20:56.458058 32441 net.cpp:150] Setting up conv6_2_conv6_2_relu_0_split
I0106 18:20:56.458062 32441 net.cpp:157] Top shape: 8 512 16 16 (1048576)
I0106 18:20:56.458065 32441 net.cpp:157] Top shape: 8 512 16 16 (1048576)
I0106 18:20:56.458067 32441 net.cpp:157] Top shape: 8 512 16 16 (1048576)
I0106 18:20:56.458070 32441 net.cpp:157] Top shape: 8 512 16 16 (1048576)
I0106 18:20:56.458071 32441 net.cpp:165] Memory required for data: 5444206624
I0106 18:20:56.458072 32441 layer_factory.hpp:77] Creating layer conv7_1
I0106 18:20:56.458081 32441 net.cpp:100] Creating Layer conv7_1
I0106 18:20:56.458096 32441 net.cpp:434] conv7_1 <- conv6_2_conv6_2_relu_0_split_0
I0106 18:20:56.458098 32441 net.cpp:408] conv7_1 -> conv7_1
I0106 18:20:56.459364 32441 net.cpp:150] Setting up conv7_1
I0106 18:20:56.459373 32441 net.cpp:157] Top shape: 8 128 16 16 (262144)
I0106 18:20:56.459378 32441 net.cpp:165] Memory required for data: 5445255200
I0106 18:20:56.459381 32441 layer_factory.hpp:77] Creating layer conv7_1_relu
I0106 18:20:56.459384 32441 net.cpp:100] Creating Layer conv7_1_relu
I0106 18:20:56.459388 32441 net.cpp:434] conv7_1_relu <- conv7_1
I0106 18:20:56.459390 32441 net.cpp:395] conv7_1_relu -> conv7_1 (in-place)
I0106 18:20:56.459714 32441 net.cpp:150] Setting up conv7_1_relu
I0106 18:20:56.459722 32441 net.cpp:157] Top shape: 8 128 16 16 (262144)
I0106 18:20:56.459725 32441 net.cpp:165] Memory required for data: 5446303776
I0106 18:20:56.459728 32441 layer_factory.hpp:77] Creating layer conv7_2
I0106 18:20:56.459736 32441 net.cpp:100] Creating Layer conv7_2
I0106 18:20:56.459738 32441 net.cpp:434] conv7_2 <- conv7_1
I0106 18:20:56.459743 32441 net.cpp:408] conv7_2 -> conv7_2
I0106 18:20:56.463302 32441 net.cpp:150] Setting up conv7_2
I0106 18:20:56.463316 32441 net.cpp:157] Top shape: 8 256 8 8 (131072)
I0106 18:20:56.463337 32441 net.cpp:165] Memory required for data: 5446828064
I0106 18:20:56.463343 32441 layer_factory.hpp:77] Creating layer conv7_2_relu
I0106 18:20:56.463348 32441 net.cpp:100] Creating Layer conv7_2_relu
I0106 18:20:56.463351 32441 net.cpp:434] conv7_2_relu <- conv7_2
I0106 18:20:56.463354 32441 net.cpp:395] conv7_2_relu -> conv7_2 (in-place)
I0106 18:20:56.463683 32441 net.cpp:150] Setting up conv7_2_relu
I0106 18:20:56.463690 32441 net.cpp:157] Top shape: 8 256 8 8 (131072)
I0106 18:20:56.463694 32441 net.cpp:165] Memory required for data: 5447352352
I0106 18:20:56.463696 32441 layer_factory.hpp:77] Creating layer conv7_2_conv7_2_relu_0_split
I0106 18:20:56.463702 32441 net.cpp:100] Creating Layer conv7_2_conv7_2_relu_0_split
I0106 18:20:56.463704 32441 net.cpp:434] conv7_2_conv7_2_relu_0_split <- conv7_2
I0106 18:20:56.463708 32441 net.cpp:408] conv7_2_conv7_2_relu_0_split -> conv7_2_conv7_2_relu_0_split_0
I0106 18:20:56.463712 32441 net.cpp:408] conv7_2_conv7_2_relu_0_split -> conv7_2_conv7_2_relu_0_split_1
I0106 18:20:56.463716 32441 net.cpp:408] conv7_2_conv7_2_relu_0_split -> conv7_2_conv7_2_relu_0_split_2
I0106 18:20:56.463721 32441 net.cpp:408] conv7_2_conv7_2_relu_0_split -> conv7_2_conv7_2_relu_0_split_3
I0106 18:20:56.463758 32441 net.cpp:150] Setting up conv7_2_conv7_2_relu_0_split
I0106 18:20:56.463762 32441 net.cpp:157] Top shape: 8 256 8 8 (131072)
I0106 18:20:56.463764 32441 net.cpp:157] Top shape: 8 256 8 8 (131072)
I0106 18:20:56.463766 32441 net.cpp:157] Top shape: 8 256 8 8 (131072)
I0106 18:20:56.463768 32441 net.cpp:157] Top shape: 8 256 8 8 (131072)
I0106 18:20:56.463770 32441 net.cpp:165] Memory required for data: 5449449504
I0106 18:20:56.463773 32441 layer_factory.hpp:77] Creating layer conv8_1
I0106 18:20:56.463780 32441 net.cpp:100] Creating Layer conv8_1
I0106 18:20:56.463783 32441 net.cpp:434] conv8_1 <- conv7_2_conv7_2_relu_0_split_0
I0106 18:20:56.463786 32441 net.cpp:408] conv8_1 -> conv8_1
I0106 18:20:56.465059 32441 net.cpp:150] Setting up conv8_1
I0106 18:20:56.465068 32441 net.cpp:157] Top shape: 8 128 8 8 (65536)
I0106 18:20:56.465072 32441 net.cpp:165] Memory required for data: 5449711648
I0106 18:20:56.465077 32441 layer_factory.hpp:77] Creating layer conv8_1_relu
I0106 18:20:56.465081 32441 net.cpp:100] Creating Layer conv8_1_relu
I0106 18:20:56.465085 32441 net.cpp:434] conv8_1_relu <- conv8_1
I0106 18:20:56.465087 32441 net.cpp:395] conv8_1_relu -> conv8_1 (in-place)
I0106 18:20:56.465306 32441 net.cpp:150] Setting up conv8_1_relu
I0106 18:20:56.465312 32441 net.cpp:157] Top shape: 8 128 8 8 (65536)
I0106 18:20:56.465315 32441 net.cpp:165] Memory required for data: 5449973792
I0106 18:20:56.465317 32441 layer_factory.hpp:77] Creating layer conv8_2
I0106 18:20:56.465324 32441 net.cpp:100] Creating Layer conv8_2
I0106 18:20:56.465327 32441 net.cpp:434] conv8_2 <- conv8_1
I0106 18:20:56.465330 32441 net.cpp:408] conv8_2 -> conv8_2
I0106 18:20:56.469121 32441 net.cpp:150] Setting up conv8_2
I0106 18:20:56.469138 32441 net.cpp:157] Top shape: 8 256 6 6 (73728)
I0106 18:20:56.469143 32441 net.cpp:165] Memory required for data: 5450268704
I0106 18:20:56.469148 32441 layer_factory.hpp:77] Creating layer conv8_2_relu
I0106 18:20:56.469154 32441 net.cpp:100] Creating Layer conv8_2_relu
I0106 18:20:56.469157 32441 net.cpp:434] conv8_2_relu <- conv8_2
I0106 18:20:56.469161 32441 net.cpp:395] conv8_2_relu -> conv8_2 (in-place)
I0106 18:20:56.469563 32441 net.cpp:150] Setting up conv8_2_relu
I0106 18:20:56.469570 32441 net.cpp:157] Top shape: 8 256 6 6 (73728)
I0106 18:20:56.469574 32441 net.cpp:165] Memory required for data: 5450563616
I0106 18:20:56.469576 32441 layer_factory.hpp:77] Creating layer conv8_2_conv8_2_relu_0_split
I0106 18:20:56.469583 32441 net.cpp:100] Creating Layer conv8_2_conv8_2_relu_0_split
I0106 18:20:56.469585 32441 net.cpp:434] conv8_2_conv8_2_relu_0_split <- conv8_2
I0106 18:20:56.469589 32441 net.cpp:408] conv8_2_conv8_2_relu_0_split -> conv8_2_conv8_2_relu_0_split_0
I0106 18:20:56.469594 32441 net.cpp:408] conv8_2_conv8_2_relu_0_split -> conv8_2_conv8_2_relu_0_split_1
I0106 18:20:56.469611 32441 net.cpp:408] conv8_2_conv8_2_relu_0_split -> conv8_2_conv8_2_relu_0_split_2
I0106 18:20:56.469619 32441 net.cpp:408] conv8_2_conv8_2_relu_0_split -> conv8_2_conv8_2_relu_0_split_3
I0106 18:20:56.469658 32441 net.cpp:150] Setting up conv8_2_conv8_2_relu_0_split
I0106 18:20:56.469662 32441 net.cpp:157] Top shape: 8 256 6 6 (73728)
I0106 18:20:56.469666 32441 net.cpp:157] Top shape: 8 256 6 6 (73728)
I0106 18:20:56.469667 32441 net.cpp:157] Top shape: 8 256 6 6 (73728)
I0106 18:20:56.469669 32441 net.cpp:157] Top shape: 8 256 6 6 (73728)
I0106 18:20:56.469671 32441 net.cpp:165] Memory required for data: 5451743264
I0106 18:20:56.469673 32441 layer_factory.hpp:77] Creating layer conv9_1
I0106 18:20:56.469681 32441 net.cpp:100] Creating Layer conv9_1
I0106 18:20:56.469683 32441 net.cpp:434] conv9_1 <- conv8_2_conv8_2_relu_0_split_0
I0106 18:20:56.469686 32441 net.cpp:408] conv9_1 -> conv9_1
I0106 18:20:56.470827 32441 net.cpp:150] Setting up conv9_1
I0106 18:20:56.470836 32441 net.cpp:157] Top shape: 8 128 6 6 (36864)
I0106 18:20:56.470839 32441 net.cpp:165] Memory required for data: 5451890720
I0106 18:20:56.470844 32441 layer_factory.hpp:77] Creating layer conv9_1_relu
I0106 18:20:56.470849 32441 net.cpp:100] Creating Layer conv9_1_relu
I0106 18:20:56.470851 32441 net.cpp:434] conv9_1_relu <- conv9_1
I0106 18:20:56.470854 32441 net.cpp:395] conv9_1_relu -> conv9_1 (in-place)
I0106 18:20:56.471179 32441 net.cpp:150] Setting up conv9_1_relu
I0106 18:20:56.471185 32441 net.cpp:157] Top shape: 8 128 6 6 (36864)
I0106 18:20:56.471189 32441 net.cpp:165] Memory required for data: 5452038176
I0106 18:20:56.471191 32441 layer_factory.hpp:77] Creating layer conv9_2
I0106 18:20:56.471199 32441 net.cpp:100] Creating Layer conv9_2
I0106 18:20:56.471201 32441 net.cpp:434] conv9_2 <- conv9_1
I0106 18:20:56.471205 32441 net.cpp:408] conv9_2 -> conv9_2
I0106 18:20:56.474596 32441 net.cpp:150] Setting up conv9_2
I0106 18:20:56.474611 32441 net.cpp:157] Top shape: 8 256 4 4 (32768)
I0106 18:20:56.474615 32441 net.cpp:165] Memory required for data: 5452169248
I0106 18:20:56.474622 32441 layer_factory.hpp:77] Creating layer conv9_2_relu
I0106 18:20:56.474627 32441 net.cpp:100] Creating Layer conv9_2_relu
I0106 18:20:56.474630 32441 net.cpp:434] conv9_2_relu <- conv9_2
I0106 18:20:56.474633 32441 net.cpp:395] conv9_2_relu -> conv9_2 (in-place)
I0106 18:20:56.474956 32441 net.cpp:150] Setting up conv9_2_relu
I0106 18:20:56.474964 32441 net.cpp:157] Top shape: 8 256 4 4 (32768)
I0106 18:20:56.474968 32441 net.cpp:165] Memory required for data: 5452300320
I0106 18:20:56.474970 32441 layer_factory.hpp:77] Creating layer conv9_2_conv9_2_relu_0_split
I0106 18:20:56.474975 32441 net.cpp:100] Creating Layer conv9_2_conv9_2_relu_0_split
I0106 18:20:56.474978 32441 net.cpp:434] conv9_2_conv9_2_relu_0_split <- conv9_2
I0106 18:20:56.474982 32441 net.cpp:408] conv9_2_conv9_2_relu_0_split -> conv9_2_conv9_2_relu_0_split_0
I0106 18:20:56.474987 32441 net.cpp:408] conv9_2_conv9_2_relu_0_split -> conv9_2_conv9_2_relu_0_split_1
I0106 18:20:56.474992 32441 net.cpp:408] conv9_2_conv9_2_relu_0_split -> conv9_2_conv9_2_relu_0_split_2
I0106 18:20:56.475024 32441 net.cpp:150] Setting up conv9_2_conv9_2_relu_0_split
I0106 18:20:56.475028 32441 net.cpp:157] Top shape: 8 256 4 4 (32768)
I0106 18:20:56.475030 32441 net.cpp:157] Top shape: 8 256 4 4 (32768)
I0106 18:20:56.475033 32441 net.cpp:157] Top shape: 8 256 4 4 (32768)
I0106 18:20:56.475034 32441 net.cpp:165] Memory required for data: 5452693536
I0106 18:20:56.475036 32441 layer_factory.hpp:77] Creating layer conv4_3_norm
I0106 18:20:56.475040 32441 net.cpp:100] Creating Layer conv4_3_norm
I0106 18:20:56.475044 32441 net.cpp:434] conv4_3_norm <- conv4_3_relu4_3_0_split_1
I0106 18:20:56.475047 32441 net.cpp:408] conv4_3_norm -> conv4_3_norm
I0106 18:20:56.475126 32441 net.cpp:150] Setting up conv4_3_norm
I0106 18:20:56.475129 32441 net.cpp:157] Top shape: 8 512 64 64 (16777216)
I0106 18:20:56.475132 32441 net.cpp:165] Memory required for data: 5519802400
I0106 18:20:56.475147 32441 layer_factory.hpp:77] Creating layer conv4_3_norm_conv4_3_norm_0_split
I0106 18:20:56.475152 32441 net.cpp:100] Creating Layer conv4_3_norm_conv4_3_norm_0_split
I0106 18:20:56.475155 32441 net.cpp:434] conv4_3_norm_conv4_3_norm_0_split <- conv4_3_norm
I0106 18:20:56.475158 32441 net.cpp:408] conv4_3_norm_conv4_3_norm_0_split -> conv4_3_norm_conv4_3_norm_0_split_0
I0106 18:20:56.475162 32441 net.cpp:408] conv4_3_norm_conv4_3_norm_0_split -> conv4_3_norm_conv4_3_norm_0_split_1
I0106 18:20:56.475165 32441 net.cpp:408] conv4_3_norm_conv4_3_norm_0_split -> conv4_3_norm_conv4_3_norm_0_split_2
I0106 18:20:56.475193 32441 net.cpp:150] Setting up conv4_3_norm_conv4_3_norm_0_split
I0106 18:20:56.475198 32441 net.cpp:157] Top shape: 8 512 64 64 (16777216)
I0106 18:20:56.475200 32441 net.cpp:157] Top shape: 8 512 64 64 (16777216)
I0106 18:20:56.475203 32441 net.cpp:157] Top shape: 8 512 64 64 (16777216)
I0106 18:20:56.475204 32441 net.cpp:165] Memory required for data: 5721128992
I0106 18:20:56.475206 32441 layer_factory.hpp:77] Creating layer conv4_3_norm_mbox_loc
I0106 18:20:56.475214 32441 net.cpp:100] Creating Layer conv4_3_norm_mbox_loc
I0106 18:20:56.475217 32441 net.cpp:434] conv4_3_norm_mbox_loc <- conv4_3_norm_conv4_3_norm_0_split_0
I0106 18:20:56.475220 32441 net.cpp:408] conv4_3_norm_mbox_loc -> conv4_3_norm_mbox_loc
I0106 18:20:56.477458 32441 net.cpp:150] Setting up conv4_3_norm_mbox_loc
I0106 18:20:56.477468 32441 net.cpp:157] Top shape: 8 16 64 64 (524288)
I0106 18:20:56.477471 32441 net.cpp:165] Memory required for data: 5723226144
I0106 18:20:56.477475 32441 layer_factory.hpp:77] Creating layer conv4_3_norm_mbox_loc_perm
I0106 18:20:56.477483 32441 net.cpp:100] Creating Layer conv4_3_norm_mbox_loc_perm
I0106 18:20:56.477485 32441 net.cpp:434] conv4_3_norm_mbox_loc_perm <- conv4_3_norm_mbox_loc
I0106 18:20:56.477489 32441 net.cpp:408] conv4_3_norm_mbox_loc_perm -> conv4_3_norm_mbox_loc_perm
I0106 18:20:56.477552 32441 net.cpp:150] Setting up conv4_3_norm_mbox_loc_perm
I0106 18:20:56.477556 32441 net.cpp:157] Top shape: 8 64 64 16 (524288)
I0106 18:20:56.477560 32441 net.cpp:165] Memory required for data: 5725323296
I0106 18:20:56.477561 32441 layer_factory.hpp:77] Creating layer conv4_3_norm_mbox_loc_flat
I0106 18:20:56.477571 32441 net.cpp:100] Creating Layer conv4_3_norm_mbox_loc_flat
I0106 18:20:56.477573 32441 net.cpp:434] conv4_3_norm_mbox_loc_flat <- conv4_3_norm_mbox_loc_perm
I0106 18:20:56.477576 32441 net.cpp:408] conv4_3_norm_mbox_loc_flat -> conv4_3_norm_mbox_loc_flat
I0106 18:20:56.477596 32441 net.cpp:150] Setting up conv4_3_norm_mbox_loc_flat
I0106 18:20:56.477599 32441 net.cpp:157] Top shape: 8 65536 (524288)
I0106 18:20:56.477602 32441 net.cpp:165] Memory required for data: 5727420448
I0106 18:20:56.477604 32441 layer_factory.hpp:77] Creating layer conv4_3_norm_mbox_conf
I0106 18:20:56.477612 32441 net.cpp:100] Creating Layer conv4_3_norm_mbox_conf
I0106 18:20:56.477615 32441 net.cpp:434] conv4_3_norm_mbox_conf <- conv4_3_norm_conv4_3_norm_0_split_1
I0106 18:20:56.477619 32441 net.cpp:408] conv4_3_norm_mbox_conf -> conv4_3_norm_mbox_conf
I0106 18:20:56.479029 32441 net.cpp:150] Setting up conv4_3_norm_mbox_conf
I0106 18:20:56.479038 32441 net.cpp:157] Top shape: 8 8 64 64 (262144)
I0106 18:20:56.479043 32441 net.cpp:165] Memory required for data: 5728469024
I0106 18:20:56.479048 32441 layer_factory.hpp:77] Creating layer conv4_3_norm_mbox_conf_perm
I0106 18:20:56.479054 32441 net.cpp:100] Creating Layer conv4_3_norm_mbox_conf_perm
I0106 18:20:56.479058 32441 net.cpp:434] conv4_3_norm_mbox_conf_perm <- conv4_3_norm_mbox_conf
I0106 18:20:56.479063 32441 net.cpp:408] conv4_3_norm_mbox_conf_perm -> conv4_3_norm_mbox_conf_perm
I0106 18:20:56.479123 32441 net.cpp:150] Setting up conv4_3_norm_mbox_conf_perm
I0106 18:20:56.479127 32441 net.cpp:157] Top shape: 8 64 64 8 (262144)
I0106 18:20:56.479131 32441 net.cpp:165] Memory required for data: 5729517600
I0106 18:20:56.479133 32441 layer_factory.hpp:77] Creating layer conv4_3_norm_mbox_conf_flat
I0106 18:20:56.479151 32441 net.cpp:100] Creating Layer conv4_3_norm_mbox_conf_flat
I0106 18:20:56.479153 32441 net.cpp:434] conv4_3_norm_mbox_conf_flat <- conv4_3_norm_mbox_conf_perm
I0106 18:20:56.479157 32441 net.cpp:408] conv4_3_norm_mbox_conf_flat -> conv4_3_norm_mbox_conf_flat
I0106 18:20:56.479173 32441 net.cpp:150] Setting up conv4_3_norm_mbox_conf_flat
I0106 18:20:56.479177 32441 net.cpp:157] Top shape: 8 32768 (262144)
I0106 18:20:56.479182 32441 net.cpp:165] Memory required for data: 5730566176
I0106 18:20:56.479182 32441 layer_factory.hpp:77] Creating layer conv4_3_norm_mbox_priorbox
I0106 18:20:56.479192 32441 net.cpp:100] Creating Layer conv4_3_norm_mbox_priorbox
I0106 18:20:56.479195 32441 net.cpp:434] conv4_3_norm_mbox_priorbox <- conv4_3_norm_conv4_3_norm_0_split_2
I0106 18:20:56.479198 32441 net.cpp:434] conv4_3_norm_mbox_priorbox <- data_data_0_split_1
I0106 18:20:56.479202 32441 net.cpp:408] conv4_3_norm_mbox_priorbox -> conv4_3_norm_mbox_priorbox
I0106 18:20:56.479221 32441 net.cpp:150] Setting up conv4_3_norm_mbox_priorbox
I0106 18:20:56.479225 32441 net.cpp:157] Top shape: 1 2 65536 (131072)
I0106 18:20:56.479229 32441 net.cpp:165] Memory required for data: 5731090464
I0106 18:20:56.479231 32441 layer_factory.hpp:77] Creating layer fc7_mbox_loc
I0106 18:20:56.479238 32441 net.cpp:100] Creating Layer fc7_mbox_loc
I0106 18:20:56.479240 32441 net.cpp:434] fc7_mbox_loc <- fc7_relu7_0_split_1
I0106 18:20:56.479244 32441 net.cpp:408] fc7_mbox_loc -> fc7_mbox_loc
I0106 18:20:56.481693 32441 net.cpp:150] Setting up fc7_mbox_loc
I0106 18:20:56.481703 32441 net.cpp:157] Top shape: 8 24 32 32 (196608)
I0106 18:20:56.481707 32441 net.cpp:165] Memory required for data: 5731876896
I0106 18:20:56.481714 32441 layer_factory.hpp:77] Creating layer fc7_mbox_loc_perm
I0106 18:20:56.481719 32441 net.cpp:100] Creating Layer fc7_mbox_loc_perm
I0106 18:20:56.481721 32441 net.cpp:434] fc7_mbox_loc_perm <- fc7_mbox_loc
I0106 18:20:56.481726 32441 net.cpp:408] fc7_mbox_loc_perm -> fc7_mbox_loc_perm
I0106 18:20:56.481788 32441 net.cpp:150] Setting up fc7_mbox_loc_perm
I0106 18:20:56.481792 32441 net.cpp:157] Top shape: 8 32 32 24 (196608)
I0106 18:20:56.481796 32441 net.cpp:165] Memory required for data: 5732663328
I0106 18:20:56.481797 32441 layer_factory.hpp:77] Creating layer fc7_mbox_loc_flat
I0106 18:20:56.481802 32441 net.cpp:100] Creating Layer fc7_mbox_loc_flat
I0106 18:20:56.481812 32441 net.cpp:434] fc7_mbox_loc_flat <- fc7_mbox_loc_perm
I0106 18:20:56.481815 32441 net.cpp:408] fc7_mbox_loc_flat -> fc7_mbox_loc_flat
I0106 18:20:56.481832 32441 net.cpp:150] Setting up fc7_mbox_loc_flat
I0106 18:20:56.481835 32441 net.cpp:157] Top shape: 8 24576 (196608)
I0106 18:20:56.481838 32441 net.cpp:165] Memory required for data: 5733449760
I0106 18:20:56.481839 32441 layer_factory.hpp:77] Creating layer fc7_mbox_conf
I0106 18:20:56.481846 32441 net.cpp:100] Creating Layer fc7_mbox_conf
I0106 18:20:56.481848 32441 net.cpp:434] fc7_mbox_conf <- fc7_relu7_0_split_2
I0106 18:20:56.481851 32441 net.cpp:408] fc7_mbox_conf -> fc7_mbox_conf
I0106 18:20:56.484704 32441 net.cpp:150] Setting up fc7_mbox_conf
I0106 18:20:56.484720 32441 net.cpp:157] Top shape: 8 12 32 32 (98304)
I0106 18:20:56.484724 32441 net.cpp:165] Memory required for data: 5733842976
I0106 18:20:56.484730 32441 layer_factory.hpp:77] Creating layer fc7_mbox_conf_perm
I0106 18:20:56.484736 32441 net.cpp:100] Creating Layer fc7_mbox_conf_perm
I0106 18:20:56.484740 32441 net.cpp:434] fc7_mbox_conf_perm <- fc7_mbox_conf
I0106 18:20:56.484745 32441 net.cpp:408] fc7_mbox_conf_perm -> fc7_mbox_conf_perm
I0106 18:20:56.484803 32441 net.cpp:150] Setting up fc7_mbox_conf_perm
I0106 18:20:56.484807 32441 net.cpp:157] Top shape: 8 32 32 12 (98304)
I0106 18:20:56.484810 32441 net.cpp:165] Memory required for data: 5734236192
I0106 18:20:56.484812 32441 layer_factory.hpp:77] Creating layer fc7_mbox_conf_flat
I0106 18:20:56.484819 32441 net.cpp:100] Creating Layer fc7_mbox_conf_flat
I0106 18:20:56.484822 32441 net.cpp:434] fc7_mbox_conf_flat <- fc7_mbox_conf_perm
I0106 18:20:56.484839 32441 net.cpp:408] fc7_mbox_conf_flat -> fc7_mbox_conf_flat
I0106 18:20:56.484855 32441 net.cpp:150] Setting up fc7_mbox_conf_flat
I0106 18:20:56.484859 32441 net.cpp:157] Top shape: 8 12288 (98304)
I0106 18:20:56.484861 32441 net.cpp:165] Memory required for data: 5734629408
I0106 18:20:56.484863 32441 layer_factory.hpp:77] Creating layer fc7_mbox_priorbox
I0106 18:20:56.484869 32441 net.cpp:100] Creating Layer fc7_mbox_priorbox
I0106 18:20:56.484871 32441 net.cpp:434] fc7_mbox_priorbox <- fc7_relu7_0_split_3
I0106 18:20:56.484874 32441 net.cpp:434] fc7_mbox_priorbox <- data_data_0_split_2
I0106 18:20:56.484877 32441 net.cpp:408] fc7_mbox_priorbox -> fc7_mbox_priorbox
I0106 18:20:56.484896 32441 net.cpp:150] Setting up fc7_mbox_priorbox
I0106 18:20:56.484899 32441 net.cpp:157] Top shape: 1 2 24576 (49152)
I0106 18:20:56.484901 32441 net.cpp:165] Memory required for data: 5734826016
I0106 18:20:56.484902 32441 layer_factory.hpp:77] Creating layer conv6_2_mbox_loc
I0106 18:20:56.484910 32441 net.cpp:100] Creating Layer conv6_2_mbox_loc
I0106 18:20:56.484915 32441 net.cpp:434] conv6_2_mbox_loc <- conv6_2_conv6_2_relu_0_split_1
I0106 18:20:56.484917 32441 net.cpp:408] conv6_2_mbox_loc -> conv6_2_mbox_loc
I0106 18:20:56.486495 32441 net.cpp:150] Setting up conv6_2_mbox_loc
I0106 18:20:56.486505 32441 net.cpp:157] Top shape: 8 24 16 16 (49152)
I0106 18:20:56.486508 32441 net.cpp:165] Memory required for data: 5735022624
I0106 18:20:56.486512 32441 layer_factory.hpp:77] Creating layer conv6_2_mbox_loc_perm
I0106 18:20:56.486517 32441 net.cpp:100] Creating Layer conv6_2_mbox_loc_perm
I0106 18:20:56.486521 32441 net.cpp:434] conv6_2_mbox_loc_perm <- conv6_2_mbox_loc
I0106 18:20:56.486523 32441 net.cpp:408] conv6_2_mbox_loc_perm -> conv6_2_mbox_loc_perm
I0106 18:20:56.486579 32441 net.cpp:150] Setting up conv6_2_mbox_loc_perm
I0106 18:20:56.486583 32441 net.cpp:157] Top shape: 8 16 16 24 (49152)
I0106 18:20:56.486586 32441 net.cpp:165] Memory required for data: 5735219232
I0106 18:20:56.486588 32441 layer_factory.hpp:77] Creating layer conv6_2_mbox_loc_flat
I0106 18:20:56.486593 32441 net.cpp:100] Creating Layer conv6_2_mbox_loc_flat
I0106 18:20:56.486596 32441 net.cpp:434] conv6_2_mbox_loc_flat <- conv6_2_mbox_loc_perm
I0106 18:20:56.486598 32441 net.cpp:408] conv6_2_mbox_loc_flat -> conv6_2_mbox_loc_flat
I0106 18:20:56.486613 32441 net.cpp:150] Setting up conv6_2_mbox_loc_flat
I0106 18:20:56.486614 32441 net.cpp:157] Top shape: 8 6144 (49152)
I0106 18:20:56.486616 32441 net.cpp:165] Memory required for data: 5735415840
I0106 18:20:56.486618 32441 layer_factory.hpp:77] Creating layer conv6_2_mbox_conf
I0106 18:20:56.486624 32441 net.cpp:100] Creating Layer conv6_2_mbox_conf
I0106 18:20:56.486629 32441 net.cpp:434] conv6_2_mbox_conf <- conv6_2_conv6_2_relu_0_split_2
I0106 18:20:56.486632 32441 net.cpp:408] conv6_2_mbox_conf -> conv6_2_mbox_conf
I0106 18:20:56.488065 32441 net.cpp:150] Setting up conv6_2_mbox_conf
I0106 18:20:56.488075 32441 net.cpp:157] Top shape: 8 12 16 16 (24576)
I0106 18:20:56.488080 32441 net.cpp:165] Memory required for data: 5735514144
I0106 18:20:56.488085 32441 layer_factory.hpp:77] Creating layer conv6_2_mbox_conf_perm
I0106 18:20:56.488090 32441 net.cpp:100] Creating Layer conv6_2_mbox_conf_perm
I0106 18:20:56.488092 32441 net.cpp:434] conv6_2_mbox_conf_perm <- conv6_2_mbox_conf
I0106 18:20:56.488096 32441 net.cpp:408] conv6_2_mbox_conf_perm -> conv6_2_mbox_conf_perm
I0106 18:20:56.488157 32441 net.cpp:150] Setting up conv6_2_mbox_conf_perm
I0106 18:20:56.488162 32441 net.cpp:157] Top shape: 8 16 16 12 (24576)
I0106 18:20:56.488164 32441 net.cpp:165] Memory required for data: 5735612448
I0106 18:20:56.488165 32441 layer_factory.hpp:77] Creating layer conv6_2_mbox_conf_flat
I0106 18:20:56.488169 32441 net.cpp:100] Creating Layer conv6_2_mbox_conf_flat
I0106 18:20:56.488171 32441 net.cpp:434] conv6_2_mbox_conf_flat <- conv6_2_mbox_conf_perm
I0106 18:20:56.488174 32441 net.cpp:408] conv6_2_mbox_conf_flat -> conv6_2_mbox_conf_flat
I0106 18:20:56.488189 32441 net.cpp:150] Setting up conv6_2_mbox_conf_flat
I0106 18:20:56.488204 32441 net.cpp:157] Top shape: 8 3072 (24576)
I0106 18:20:56.488207 32441 net.cpp:165] Memory required for data: 5735710752
I0106 18:20:56.488209 32441 layer_factory.hpp:77] Creating layer conv6_2_mbox_priorbox
I0106 18:20:56.488215 32441 net.cpp:100] Creating Layer conv6_2_mbox_priorbox
I0106 18:20:56.488219 32441 net.cpp:434] conv6_2_mbox_priorbox <- conv6_2_conv6_2_relu_0_split_3
I0106 18:20:56.488221 32441 net.cpp:434] conv6_2_mbox_priorbox <- data_data_0_split_3
I0106 18:20:56.488225 32441 net.cpp:408] conv6_2_mbox_priorbox -> conv6_2_mbox_priorbox
I0106 18:20:56.488243 32441 net.cpp:150] Setting up conv6_2_mbox_priorbox
I0106 18:20:56.488246 32441 net.cpp:157] Top shape: 1 2 6144 (12288)
I0106 18:20:56.488250 32441 net.cpp:165] Memory required for data: 5735759904
I0106 18:20:56.488252 32441 layer_factory.hpp:77] Creating layer conv7_2_mbox_loc
I0106 18:20:56.488260 32441 net.cpp:100] Creating Layer conv7_2_mbox_loc
I0106 18:20:56.488262 32441 net.cpp:434] conv7_2_mbox_loc <- conv7_2_conv7_2_relu_0_split_1
I0106 18:20:56.488266 32441 net.cpp:408] conv7_2_mbox_loc -> conv7_2_mbox_loc
I0106 18:20:56.491215 32441 net.cpp:150] Setting up conv7_2_mbox_loc
I0106 18:20:56.491230 32441 net.cpp:157] Top shape: 8 24 8 8 (12288)
I0106 18:20:56.491235 32441 net.cpp:165] Memory required for data: 5735809056
I0106 18:20:56.491240 32441 layer_factory.hpp:77] Creating layer conv7_2_mbox_loc_perm
I0106 18:20:56.491248 32441 net.cpp:100] Creating Layer conv7_2_mbox_loc_perm
I0106 18:20:56.491253 32441 net.cpp:434] conv7_2_mbox_loc_perm <- conv7_2_mbox_loc
I0106 18:20:56.491257 32441 net.cpp:408] conv7_2_mbox_loc_perm -> conv7_2_mbox_loc_perm
I0106 18:20:56.491322 32441 net.cpp:150] Setting up conv7_2_mbox_loc_perm
I0106 18:20:56.491326 32441 net.cpp:157] Top shape: 8 8 8 24 (12288)
I0106 18:20:56.491329 32441 net.cpp:165] Memory required for data: 5735858208
I0106 18:20:56.491330 32441 layer_factory.hpp:77] Creating layer conv7_2_mbox_loc_flat
I0106 18:20:56.491335 32441 net.cpp:100] Creating Layer conv7_2_mbox_loc_flat
I0106 18:20:56.491338 32441 net.cpp:434] conv7_2_mbox_loc_flat <- conv7_2_mbox_loc_perm
I0106 18:20:56.491340 32441 net.cpp:408] conv7_2_mbox_loc_flat -> conv7_2_mbox_loc_flat
I0106 18:20:56.491354 32441 net.cpp:150] Setting up conv7_2_mbox_loc_flat
I0106 18:20:56.491356 32441 net.cpp:157] Top shape: 8 1536 (12288)
I0106 18:20:56.491359 32441 net.cpp:165] Memory required for data: 5735907360
I0106 18:20:56.491360 32441 layer_factory.hpp:77] Creating layer conv7_2_mbox_conf
I0106 18:20:56.491369 32441 net.cpp:100] Creating Layer conv7_2_mbox_conf
I0106 18:20:56.491372 32441 net.cpp:434] conv7_2_mbox_conf <- conv7_2_conv7_2_relu_0_split_2
I0106 18:20:56.491376 32441 net.cpp:408] conv7_2_mbox_conf -> conv7_2_mbox_conf
I0106 18:20:56.492596 32441 net.cpp:150] Setting up conv7_2_mbox_conf
I0106 18:20:56.492604 32441 net.cpp:157] Top shape: 8 12 8 8 (6144)
I0106 18:20:56.492609 32441 net.cpp:165] Memory required for data: 5735931936
I0106 18:20:56.492612 32441 layer_factory.hpp:77] Creating layer conv7_2_mbox_conf_perm
I0106 18:20:56.492616 32441 net.cpp:100] Creating Layer conv7_2_mbox_conf_perm
I0106 18:20:56.492619 32441 net.cpp:434] conv7_2_mbox_conf_perm <- conv7_2_mbox_conf
I0106 18:20:56.492624 32441 net.cpp:408] conv7_2_mbox_conf_perm -> conv7_2_mbox_conf_perm
I0106 18:20:56.492683 32441 net.cpp:150] Setting up conv7_2_mbox_conf_perm
I0106 18:20:56.492687 32441 net.cpp:157] Top shape: 8 8 8 12 (6144)
I0106 18:20:56.492691 32441 net.cpp:165] Memory required for data: 5735956512
I0106 18:20:56.492691 32441 layer_factory.hpp:77] Creating layer conv7_2_mbox_conf_flat
I0106 18:20:56.492697 32441 net.cpp:100] Creating Layer conv7_2_mbox_conf_flat
I0106 18:20:56.492698 32441 net.cpp:434] conv7_2_mbox_conf_flat <- conv7_2_mbox_conf_perm
I0106 18:20:56.492702 32441 net.cpp:408] conv7_2_mbox_conf_flat -> conv7_2_mbox_conf_flat
I0106 18:20:56.492714 32441 net.cpp:150] Setting up conv7_2_mbox_conf_flat
I0106 18:20:56.492717 32441 net.cpp:157] Top shape: 8 768 (6144)
I0106 18:20:56.492719 32441 net.cpp:165] Memory required for data: 5735981088
I0106 18:20:56.492733 32441 layer_factory.hpp:77] Creating layer conv7_2_mbox_priorbox
I0106 18:20:56.492740 32441 net.cpp:100] Creating Layer conv7_2_mbox_priorbox
I0106 18:20:56.492743 32441 net.cpp:434] conv7_2_mbox_priorbox <- conv7_2_conv7_2_relu_0_split_3
I0106 18:20:56.492748 32441 net.cpp:434] conv7_2_mbox_priorbox <- data_data_0_split_4
I0106 18:20:56.492753 32441 net.cpp:408] conv7_2_mbox_priorbox -> conv7_2_mbox_priorbox
I0106 18:20:56.492769 32441 net.cpp:150] Setting up conv7_2_mbox_priorbox
I0106 18:20:56.492772 32441 net.cpp:157] Top shape: 1 2 1536 (3072)
I0106 18:20:56.492775 32441 net.cpp:165] Memory required for data: 5735993376
I0106 18:20:56.492777 32441 layer_factory.hpp:77] Creating layer conv8_2_mbox_loc
I0106 18:20:56.492787 32441 net.cpp:100] Creating Layer conv8_2_mbox_loc
I0106 18:20:56.492790 32441 net.cpp:434] conv8_2_mbox_loc <- conv8_2_conv8_2_relu_0_split_1
I0106 18:20:56.492794 32441 net.cpp:408] conv8_2_mbox_loc -> conv8_2_mbox_loc
I0106 18:20:56.494151 32441 net.cpp:150] Setting up conv8_2_mbox_loc
I0106 18:20:56.494160 32441 net.cpp:157] Top shape: 8 16 6 6 (4608)
I0106 18:20:56.494164 32441 net.cpp:165] Memory required for data: 5736011808
I0106 18:20:56.494174 32441 layer_factory.hpp:77] Creating layer conv8_2_mbox_loc_perm
I0106 18:20:56.494180 32441 net.cpp:100] Creating Layer conv8_2_mbox_loc_perm
I0106 18:20:56.494184 32441 net.cpp:434] conv8_2_mbox_loc_perm <- conv8_2_mbox_loc
I0106 18:20:56.494189 32441 net.cpp:408] conv8_2_mbox_loc_perm -> conv8_2_mbox_loc_perm
I0106 18:20:56.494248 32441 net.cpp:150] Setting up conv8_2_mbox_loc_perm
I0106 18:20:56.494252 32441 net.cpp:157] Top shape: 8 6 6 16 (4608)
I0106 18:20:56.494256 32441 net.cpp:165] Memory required for data: 5736030240
I0106 18:20:56.494257 32441 layer_factory.hpp:77] Creating layer conv8_2_mbox_loc_flat
I0106 18:20:56.494261 32441 net.cpp:100] Creating Layer conv8_2_mbox_loc_flat
I0106 18:20:56.494263 32441 net.cpp:434] conv8_2_mbox_loc_flat <- conv8_2_mbox_loc_perm
I0106 18:20:56.494266 32441 net.cpp:408] conv8_2_mbox_loc_flat -> conv8_2_mbox_loc_flat
I0106 18:20:56.494280 32441 net.cpp:150] Setting up conv8_2_mbox_loc_flat
I0106 18:20:56.494282 32441 net.cpp:157] Top shape: 8 576 (4608)
I0106 18:20:56.494284 32441 net.cpp:165] Memory required for data: 5736048672
I0106 18:20:56.494287 32441 layer_factory.hpp:77] Creating layer conv8_2_mbox_conf
I0106 18:20:56.494293 32441 net.cpp:100] Creating Layer conv8_2_mbox_conf
I0106 18:20:56.494297 32441 net.cpp:434] conv8_2_mbox_conf <- conv8_2_conv8_2_relu_0_split_2
I0106 18:20:56.494300 32441 net.cpp:408] conv8_2_mbox_conf -> conv8_2_mbox_conf
I0106 18:20:56.495493 32441 net.cpp:150] Setting up conv8_2_mbox_conf
I0106 18:20:56.495502 32441 net.cpp:157] Top shape: 8 8 6 6 (2304)
I0106 18:20:56.495507 32441 net.cpp:165] Memory required for data: 5736057888
I0106 18:20:56.495510 32441 layer_factory.hpp:77] Creating layer conv8_2_mbox_conf_perm
I0106 18:20:56.495515 32441 net.cpp:100] Creating Layer conv8_2_mbox_conf_perm
I0106 18:20:56.495518 32441 net.cpp:434] conv8_2_mbox_conf_perm <- conv8_2_mbox_conf
I0106 18:20:56.495522 32441 net.cpp:408] conv8_2_mbox_conf_perm -> conv8_2_mbox_conf_perm
I0106 18:20:56.495582 32441 net.cpp:150] Setting up conv8_2_mbox_conf_perm
I0106 18:20:56.495586 32441 net.cpp:157] Top shape: 8 6 6 8 (2304)
I0106 18:20:56.495589 32441 net.cpp:165] Memory required for data: 5736067104
I0106 18:20:56.495591 32441 layer_factory.hpp:77] Creating layer conv8_2_mbox_conf_flat
I0106 18:20:56.495594 32441 net.cpp:100] Creating Layer conv8_2_mbox_conf_flat
I0106 18:20:56.495597 32441 net.cpp:434] conv8_2_mbox_conf_flat <- conv8_2_mbox_conf_perm
I0106 18:20:56.495600 32441 net.cpp:408] conv8_2_mbox_conf_flat -> conv8_2_mbox_conf_flat
I0106 18:20:56.495617 32441 net.cpp:150] Setting up conv8_2_mbox_conf_flat
I0106 18:20:56.495620 32441 net.cpp:157] Top shape: 8 288 (2304)
I0106 18:20:56.495622 32441 net.cpp:165] Memory required for data: 5736076320
I0106 18:20:56.495625 32441 layer_factory.hpp:77] Creating layer conv8_2_mbox_priorbox
I0106 18:20:56.495638 32441 net.cpp:100] Creating Layer conv8_2_mbox_priorbox
I0106 18:20:56.495641 32441 net.cpp:434] conv8_2_mbox_priorbox <- conv8_2_conv8_2_relu_0_split_3
I0106 18:20:56.495643 32441 net.cpp:434] conv8_2_mbox_priorbox <- data_data_0_split_5
I0106 18:20:56.495648 32441 net.cpp:408] conv8_2_mbox_priorbox -> conv8_2_mbox_priorbox
I0106 18:20:56.495666 32441 net.cpp:150] Setting up conv8_2_mbox_priorbox
I0106 18:20:56.495668 32441 net.cpp:157] Top shape: 1 2 576 (1152)
I0106 18:20:56.495671 32441 net.cpp:165] Memory required for data: 5736080928
I0106 18:20:56.495673 32441 layer_factory.hpp:77] Creating layer conv9_2_mbox_loc
I0106 18:20:56.495680 32441 net.cpp:100] Creating Layer conv9_2_mbox_loc
I0106 18:20:56.495684 32441 net.cpp:434] conv9_2_mbox_loc <- conv9_2_conv9_2_relu_0_split_0
I0106 18:20:56.495687 32441 net.cpp:408] conv9_2_mbox_loc -> conv9_2_mbox_loc
I0106 18:20:56.498543 32441 net.cpp:150] Setting up conv9_2_mbox_loc
I0106 18:20:56.498558 32441 net.cpp:157] Top shape: 8 16 4 4 (2048)
I0106 18:20:56.498562 32441 net.cpp:165] Memory required for data: 5736089120
I0106 18:20:56.498569 32441 layer_factory.hpp:77] Creating layer conv9_2_mbox_loc_perm
I0106 18:20:56.498575 32441 net.cpp:100] Creating Layer conv9_2_mbox_loc_perm
I0106 18:20:56.498579 32441 net.cpp:434] conv9_2_mbox_loc_perm <- conv9_2_mbox_loc
I0106 18:20:56.498582 32441 net.cpp:408] conv9_2_mbox_loc_perm -> conv9_2_mbox_loc_perm
I0106 18:20:56.498643 32441 net.cpp:150] Setting up conv9_2_mbox_loc_perm
I0106 18:20:56.498648 32441 net.cpp:157] Top shape: 8 4 4 16 (2048)
I0106 18:20:56.498651 32441 net.cpp:165] Memory required for data: 5736097312
I0106 18:20:56.498652 32441 layer_factory.hpp:77] Creating layer conv9_2_mbox_loc_flat
I0106 18:20:56.498657 32441 net.cpp:100] Creating Layer conv9_2_mbox_loc_flat
I0106 18:20:56.498661 32441 net.cpp:434] conv9_2_mbox_loc_flat <- conv9_2_mbox_loc_perm
I0106 18:20:56.498663 32441 net.cpp:408] conv9_2_mbox_loc_flat -> conv9_2_mbox_loc_flat
I0106 18:20:56.498678 32441 net.cpp:150] Setting up conv9_2_mbox_loc_flat
I0106 18:20:56.498682 32441 net.cpp:157] Top shape: 8 256 (2048)
I0106 18:20:56.498684 32441 net.cpp:165] Memory required for data: 5736105504
I0106 18:20:56.498687 32441 layer_factory.hpp:77] Creating layer conv9_2_mbox_conf
I0106 18:20:56.498695 32441 net.cpp:100] Creating Layer conv9_2_mbox_conf
I0106 18:20:56.498698 32441 net.cpp:434] conv9_2_mbox_conf <- conv9_2_conv9_2_relu_0_split_1
I0106 18:20:56.498703 32441 net.cpp:408] conv9_2_mbox_conf -> conv9_2_mbox_conf
I0106 18:20:56.500259 32441 net.cpp:150] Setting up conv9_2_mbox_conf
I0106 18:20:56.500270 32441 net.cpp:157] Top shape: 8 8 4 4 (1024)
I0106 18:20:56.500274 32441 net.cpp:165] Memory required for data: 5736109600
I0106 18:20:56.500279 32441 layer_factory.hpp:77] Creating layer conv9_2_mbox_conf_perm
I0106 18:20:56.500285 32441 net.cpp:100] Creating Layer conv9_2_mbox_conf_perm
I0106 18:20:56.500289 32441 net.cpp:434] conv9_2_mbox_conf_perm <- conv9_2_mbox_conf
I0106 18:20:56.500293 32441 net.cpp:408] conv9_2_mbox_conf_perm -> conv9_2_mbox_conf_perm
I0106 18:20:56.500355 32441 net.cpp:150] Setting up conv9_2_mbox_conf_perm
I0106 18:20:56.500360 32441 net.cpp:157] Top shape: 8 4 4 8 (1024)
I0106 18:20:56.500361 32441 net.cpp:165] Memory required for data: 5736113696
I0106 18:20:56.500363 32441 layer_factory.hpp:77] Creating layer conv9_2_mbox_conf_flat
I0106 18:20:56.500367 32441 net.cpp:100] Creating Layer conv9_2_mbox_conf_flat
I0106 18:20:56.500370 32441 net.cpp:434] conv9_2_mbox_conf_flat <- conv9_2_mbox_conf_perm
I0106 18:20:56.500375 32441 net.cpp:408] conv9_2_mbox_conf_flat -> conv9_2_mbox_conf_flat
I0106 18:20:56.500387 32441 net.cpp:150] Setting up conv9_2_mbox_conf_flat
I0106 18:20:56.500391 32441 net.cpp:157] Top shape: 8 128 (1024)
I0106 18:20:56.500394 32441 net.cpp:165] Memory required for data: 5736117792
I0106 18:20:56.500396 32441 layer_factory.hpp:77] Creating layer conv9_2_mbox_priorbox
I0106 18:20:56.500401 32441 net.cpp:100] Creating Layer conv9_2_mbox_priorbox
I0106 18:20:56.500403 32441 net.cpp:434] conv9_2_mbox_priorbox <- conv9_2_conv9_2_relu_0_split_2
I0106 18:20:56.500417 32441 net.cpp:434] conv9_2_mbox_priorbox <- data_data_0_split_6
I0106 18:20:56.500423 32441 net.cpp:408] conv9_2_mbox_priorbox -> conv9_2_mbox_priorbox
I0106 18:20:56.500442 32441 net.cpp:150] Setting up conv9_2_mbox_priorbox
I0106 18:20:56.500444 32441 net.cpp:157] Top shape: 1 2 256 (512)
I0106 18:20:56.500447 32441 net.cpp:165] Memory required for data: 5736119840
I0106 18:20:56.500449 32441 layer_factory.hpp:77] Creating layer mbox_loc
I0106 18:20:56.500455 32441 net.cpp:100] Creating Layer mbox_loc
I0106 18:20:56.500458 32441 net.cpp:434] mbox_loc <- conv4_3_norm_mbox_loc_flat
I0106 18:20:56.500461 32441 net.cpp:434] mbox_loc <- fc7_mbox_loc_flat
I0106 18:20:56.500465 32441 net.cpp:434] mbox_loc <- conv6_2_mbox_loc_flat
I0106 18:20:56.500469 32441 net.cpp:434] mbox_loc <- conv7_2_mbox_loc_flat
I0106 18:20:56.500471 32441 net.cpp:434] mbox_loc <- conv8_2_mbox_loc_flat
I0106 18:20:56.500474 32441 net.cpp:434] mbox_loc <- conv9_2_mbox_loc_flat
I0106 18:20:56.500478 32441 net.cpp:408] mbox_loc -> mbox_loc
I0106 18:20:56.500500 32441 net.cpp:150] Setting up mbox_loc
I0106 18:20:56.500504 32441 net.cpp:157] Top shape: 8 98624 (788992)
I0106 18:20:56.500509 32441 net.cpp:165] Memory required for data: 5739275808
I0106 18:20:56.500510 32441 layer_factory.hpp:77] Creating layer mbox_conf
I0106 18:20:56.500515 32441 net.cpp:100] Creating Layer mbox_conf
I0106 18:20:56.500519 32441 net.cpp:434] mbox_conf <- conv4_3_norm_mbox_conf_flat
I0106 18:20:56.500521 32441 net.cpp:434] mbox_conf <- fc7_mbox_conf_flat
I0106 18:20:56.500525 32441 net.cpp:434] mbox_conf <- conv6_2_mbox_conf_flat
I0106 18:20:56.500528 32441 net.cpp:434] mbox_conf <- conv7_2_mbox_conf_flat
I0106 18:20:56.500530 32441 net.cpp:434] mbox_conf <- conv8_2_mbox_conf_flat
I0106 18:20:56.500533 32441 net.cpp:434] mbox_conf <- conv9_2_mbox_conf_flat
I0106 18:20:56.500537 32441 net.cpp:408] mbox_conf -> mbox_conf
I0106 18:20:56.500550 32441 net.cpp:150] Setting up mbox_conf
I0106 18:20:56.500553 32441 net.cpp:157] Top shape: 8 49312 (394496)
I0106 18:20:56.500557 32441 net.cpp:165] Memory required for data: 5740853792
I0106 18:20:56.500560 32441 layer_factory.hpp:77] Creating layer mbox_priorbox
I0106 18:20:56.500562 32441 net.cpp:100] Creating Layer mbox_priorbox
I0106 18:20:56.500566 32441 net.cpp:434] mbox_priorbox <- conv4_3_norm_mbox_priorbox
I0106 18:20:56.500567 32441 net.cpp:434] mbox_priorbox <- fc7_mbox_priorbox
I0106 18:20:56.500571 32441 net.cpp:434] mbox_priorbox <- conv6_2_mbox_priorbox
I0106 18:20:56.500573 32441 net.cpp:434] mbox_priorbox <- conv7_2_mbox_priorbox
I0106 18:20:56.500576 32441 net.cpp:434] mbox_priorbox <- conv8_2_mbox_priorbox
I0106 18:20:56.500578 32441 net.cpp:434] mbox_priorbox <- conv9_2_mbox_priorbox
I0106 18:20:56.500582 32441 net.cpp:408] mbox_priorbox -> mbox_priorbox
I0106 18:20:56.500597 32441 net.cpp:150] Setting up mbox_priorbox
I0106 18:20:56.500602 32441 net.cpp:157] Top shape: 1 2 98624 (197248)
I0106 18:20:56.500604 32441 net.cpp:165] Memory required for data: 5741642784
I0106 18:20:56.500607 32441 layer_factory.hpp:77] Creating layer mbox_loss
I0106 18:20:56.500612 32441 net.cpp:100] Creating Layer mbox_loss
I0106 18:20:56.500615 32441 net.cpp:434] mbox_loss <- mbox_loc
I0106 18:20:56.500618 32441 net.cpp:434] mbox_loss <- mbox_conf
I0106 18:20:56.500622 32441 net.cpp:434] mbox_loss <- mbox_priorbox
…
  name: "data"
  type: "AnnotatedData"
  top: "data"
  top: "label"
  include {
    phase: TEST
  }
  transform_param {
    mean_value: 104
    mean_value: 117
    mean_value: 123
    resize_param {
      prob: 1
      resize_mode: WARP
      height: 512
      width: 512
      interp_mode: LINEAR
    }
  }
  data_param {
    source: "/home/qif/data/meter_detection/lmdb/val_lmdb"
    batch_size: 1
    backend: LMDB
  }
  annotated_data_param {
    batch_sampler {
    }
    label_map_file: "/home/qif/data/meter_detection/labelmap_meter.prototxt"
  }
}
layer {
  name: "conv1_1"
  type: "Convolution"
  bottom: "data"
  top: "conv1_1"
  param {
    lr_mult: 1
    decay_mult: 1
  }
  param {
    lr_mult: 2
    decay_mult: 0
  }
  convolution_param {
    num_output: 64
    pad: 1
    kernel_size: 3
    weight_filler {
      type: "xavier"
    }
    bias_filler {
      type: "constant"
      value: 0
    }
  }
}
layer {
  name: "relu1_1"
  type: "ReLU"
  bottom: "conv1_1"
  top: "conv1_1"
}
layer {
  name: "conv1_2"
  type: "Convolution"
  bottom: "conv1_1"
  top: "conv1_2"
  param {
    lr_mult: 1
    decay_mult: 1
  }
  param {
    lr_mult: 2
    decay_mult: 0
  }
  convolution_param {
    num_output: 64
    pad: 1
    kernel_size: 3
    weight_filler {
      type: "xavier"
    }
    bias_filler {
      type: "constant"
      value: 0
    }
  }
}
layer {
  name: "relu1_2"
  type: "ReLU"
  bottom: "conv1_2"
  top: "conv1_2"
}
layer {
  name: "pool1"
  type: "Pooling"
  bottom: "conv1_2"
  top: "pool1"
  pooling_param {
    pool: MAX
    kernel_size: 2
    stride: 2
  }
}
layer {
  name: "conv2_1"
  type: "Convolution"
  bottom: "pool1"
  top: "conv2_1"
  param {
    lr_mult: 1
    decay_mult: 1
  }
  param {
    lr_mult: 2
    decay_mult: 0
  }
  convolution_param {
    num_output: 128
    pad: 1
    kernel_size: 3
    weight_filler {
      type: "xavier"
    }
    bias_filler {
      type: "constant"
      value: 0
    }
  }
}
layer {
  name: "relu2_1"
  type: "ReLU"
  bottom: "conv2_1"
  top: "conv2_1"
}
layer {
  name: "conv2_2"
  type: "Convolution"
  bottom: "conv2_1"
  top: "conv2_2"
  param {
    lr_mult: 1
    decay_mult: 1
  }
  param {
    lr_mult: 2
    decay_mult: 0
  }
  convolution_param {
    num_output: 128
    pad: 1
    kernel_size: 3
    weight_filler {
      type: "xavier"
    }
    bias_filler {
      type: "constant"
      value: 0
    }
  }
}
layer {
  name: "relu2_2"
  type: "ReLU"
  bottom: "conv2_2"
  top: "conv2_2"
}
layer {
  name: "pool2"
  type: "Pooling"
  bottom: "conv2_2"
  top: "pool2"
  pooling_param {
    pool: MAX
    kernel_size: 2
    stride: 2
  }
}
layer {
  name: "conv3_1"
  type: "Convolution"
  bottom: "pool2"
  top: "conv3_1"
  param {
    lr_mult: 1
    decay_mult: 1
  }
  param {
    lr_mult: 2
    decay_mult: 0
  }
  convolution_param {
    num_output: 256
    pad: 1
    kernel_size: 3
    weight_filler {
      type: "xavier"
    }
    bias_filler {
      type: "constant"
      value: 0
    }
  }
}
layer {
  name: "relu3_1"
  type: "ReLU"
  bottom: "conv3_1"
  top: "conv3_1"
}
layer {
  name: "conv3_2"
  type: "Convolution"
  bottom: "conv3_1"
  top: "conv3_2"
  param {
    lr_mult: 1
    decay_mult: 1
  }
  param {
    lr_mult: 2
    decay_mult: 0
  }
  convolution_param {
    num_output: 256
    pad: 1
    kernel_size: 3
    weight_filler {
      type: "xavier"
    }
    bias_filler {
      type: "constant"
      value: 0
    }
  }
}
layer {
  name: "relu3_2"
  type: "ReLU"
  bottom: "conv3_2"
  top: "conv3_2"
}
layer {
  name: "conv3_3"
  type: "Convolution"
  bottom: "conv3_2"
  top: "conv3_3"
  param {
    lr_mult: 1
    decay_mult: 1
  }
  param {
    lr_mult: 2
    decay_mult: 0
  }
  convolution_param {
    num_output: 256
    pad: 1
    kernel_size: 3
    weight_filler {
      type: "xavier"
    }
    bias_filler {
      type: "constant"
      value: 0
    }
  }
}
layer {
  name: "relu3_3"
  type: "ReLU"
  bottom: "conv3_3"
  top: "conv3_3"
}
layer {
  name: "pool3"
  type: "Pooling"
  bottom: "conv3_3"
  top: "pool3"
  pooling_param {
    pool: MAX
    kernel_size: 2
    stride: 2
  }
}
layer {
  name: "conv4_1"
  type: "Convolution"
  bottom: "pool3"
  top: "conv4_1"
  param {
    lr_mult: 1
    decay_mult: 1
  }
  param {
    lr_mult: 2
    decay_mult: 0
  }
  convolution_param {
    num_output: 512
    pad: 1
    kernel_size: 3
    weight_filler {
      type: "xavier"
    }
    bias_filler {
      type: "constant"
      value: 0
    }
  }
}
layer {
  name: "relu4_1"
  type: "ReLU"
  bottom: "conv4_1"
  top: "conv4_1"
}
layer {
  name: "conv4_2"
  type: "Convolution"
  bottom: "conv4_1"
  top: "conv4_2"
  param {
    lr_mult: 1
    decay_mult: 1
  }
  param {
    lr_mult: 2
    decay_mult: 0
  }
  convolution_param {
    num_output: 512
    pad: 1
    kernel_size: 3
    weight_filler {
      type: "xavier"
    }
    bias_filler {
      type: "constant"
      value: 0
    }
  }
}
layer {
  name: "relu4_2"
  type: "ReLU"
  bottom: "conv4_2"
  top: "conv4_2"
}
layer {
  name: "conv4_3"
  type: "Convolution"
  bottom: "conv4_2"
  top: "conv4_3"
  param {
    lr_mult: 1
    decay_mult: 1
  }
  param {
    lr_mult: 2
    decay_mult: 0
  }
  convolution_param {
    num_output: 512
    pad: 1
    kernel_size: 3
    weight_filler {
      type: "xavier"
    }
    bias_filler {
      type: "constant"
      value: 0
    }
  }
}
layer {
  name: "relu4_3"
  type: "ReLU"
  bottom: "conv4_3"
  top: "conv4_3"
}
layer {
  name: "pool4"
  type: "Pooling"
  bottom: "conv4_3"
  top: "pool4"
  pooling_param {
    pool: MAX
    kernel_size: 2
    stride: 2
  }
}
layer {
  name: "conv5_1"
  type: "Convolution"
  bottom: "pool4"
  top: "conv5_1"
  param {
    lr_mult: 1
    decay_mult: 1
  }
  param {
    lr_mult: 2
    decay_mult: 0
  }
  convolution_param {
    num_output: 512
    pad: 1
    kernel_size: 3
    weight_filler {
      type: "xavier"
    }
    bias_filler {
      type: "constant"
      value: 0
    }
    dilation: 1
  }
}
layer {
  name: "relu5_1"
  type: "ReLU"
  bottom: "conv5_1"
  top: "conv5_1"
}
layer {
  name: "conv5_2"
  type: "Convolution"
  bottom: "conv5_1"
  top: "conv5_2"
  param {
    lr_mult: 1
    decay_mult: 1
  }
  param {
    lr_mult: 2
    decay_mult: 0
  }
  convolution_param {
    num_output: 512
    pad: 1
    kernel_size: 3
    weight_filler {
      type: "xavier"
    }
    bias_filler {
      type: "constant"
      value: 0
    }
    dilation: 1
  }
}
layer {
  name: "relu5_2"
  type: "ReLU"
  bottom: "conv5_2"
  top: "conv5_2"
}
layer {
  name: "conv5_3"
  type: "Convolution"
  bottom: "conv5_2"
  top: "conv5_3"
  param {
    lr_mult: 1
    decay_mult: 1
  }
  param {
    lr_mult: 2
    decay_mult: 0
  }
  convolution_param {
    num_output: 512
    pad: 1
    kernel_size: 3
    weight_filler {
      type: "xavier"
    }
    bias_filler {
      type: "constant"
      value: 0
    }
    dilation: 1
  }
}
layer {
  name: "relu5_3"
  type: "ReLU"
  bottom: "conv5_3"
  top: "conv5_3"
}
layer {
  name: "pool5"
  type: "Pooling"
  bottom: "conv5_3"
  top: "pool5"
  pooling_param {
    pool: MAX
    kernel_size: 3
    stride: 1
    pad: 1
  }
}
layer {
  name: "fc6"
  type: "Convolution"
  bottom: "pool5"
  top: "fc6"
  param {
    lr_mult: 1
    decay_mult: 1
  }
  param {
    lr_mult: 2
    decay_mult: 0
  }
  convolution_param {
    num_output: 1024
    pad: 6
    kernel_size: 3
    weight_filler {
      type: "xavier"
    }
    bias_filler {
      type: "constant"
      value: 0
    }
    dilation: 6
  }
}
layer {
  name: "relu6"
  type: "ReLU"
  bottom: "fc6"
  top: "fc6"
}
layer {
  name: "fc7"
  type: "Convolution"
  bottom: "fc6"
  top: "fc7"
  param {
    lr_mult: 1
    decay_mult: 1
  }
  param {
    lr_mult: 2
    decay_mult: 0
  }
  convolution_param {
    num_output: 1024
    kernel_size: 1
    weight_filler {
      type: "xavier"
    }
    bias_filler {
      type: "constant"
      value: 0
    }
  }
}
layer {
  name: "relu7"
  type: "ReLU"
  bottom: "fc7"
  top: "fc7"
}
layer {
  name: "conv6_1"
  type: "Convolution"
  bottom: "fc7"
  top: "conv6_1"
  param {
    lr_mult: 1
    decay_mult: 1
  }
  param {
    lr_mult: 2
    decay_mult: 0
  }
  convolution_param {
    num_output: 256
    pad: 0
    kernel_size: 1
    stride: 1
    weight_filler {
      type: "xavier"
    }
    bias_filler {
      type: "constant"
      value: 0
    }
  }
}
layer {
  name: "conv6_1_relu"
  type: "ReLU"
  bottom: "conv6_1"
  top: "conv6_1"
}
layer {
  name: "conv6_2"
  type: "Convolution"
  bottom: "conv6_1"
  top: "conv6_2"
  param {
    lr_mult: 1
    decay_mult: 1
  }
  param {
    lr_mult: 2
    decay_mult: 0
  }
  convolution_param {
    num_output: 512
    pad: 1
    kernel_size: 3
    stride: 2
    weight_filler {
      type: "xavier"
    }
    bias_filler {
      type: "constant"
      value: 0
    }
  }
}
layer {
  name: "conv6_2_relu"
  type: "ReLU"
  bottom: "conv6_2"
  top: "conv6_2"
}
layer {
  name: "conv7_1"
  type: "Convolution"
  bottom: "conv6_2"
  top: "conv7_1"
  param {
    lr_mult: 1
    decay_mult: 1
  }
  param {
    lr_mult: 2
    decay_mult: 0
  }
  convolution_param {
    num_output: 128
    pad: 0
    kernel_size: 1
    stride: 1
    weight_filler {
      type: "xavier"
    }
    bias_filler {
      type: "constant"
      value: 0
    }
  }
}
layer {
  name: "conv7_1_relu"
  type: "ReLU"
  bottom: "conv7_1"
  top: "conv7_1"
}
layer {
  name: "conv7_2"
  type: "Convolution"
  bottom: "conv7_1"
  top: "conv7_2"
  param {
    lr_mult: 1
    decay_mult: 1
  }
  param {
    lr_mult: 2
    decay_mult: 0
  }
  convolution_param {
    num_output: 256
    pad: 1
    kernel_size: 3
    stride: 2
    weight_filler {
      type: "xavier"
    }
    bias_filler {
      type: "constant"
      value: 0
    }
  }
}
layer {
  name: "conv7_2_relu"
  type: "ReLU"
  bottom: "conv7_2"
  top: "conv7_2"
}
layer {
  name: "conv8_1"
  type: "Convolution"
  bottom: "conv7_2"
  top: "conv8_1"
  param {
    lr_mult: 1
    decay_mult: 1
  }
  param {
    lr_mult: 2
    decay_mult: 0
  }
  convolution_param {
    num_output: 128
    pad: 0
    kernel_size: 1
    stride: 1
    weight_filler {
      type: "xavier"
    }
    bias_filler {
      type: "constant"
      value: 0
    }
  }
}
layer {
  name: "conv8_1_relu"
  type: "ReLU"
  bottom: "conv8_1"
  top: "conv8_1"
}
layer {
  name: "conv8_2"
  type: "Convolution"
  bottom: "conv8_1"
  top: "conv8_2"
  param {
    lr_mult: 1
    decay_mult: 1
  }
  param {
    lr_mult: 2
    decay_mult: 0
  }
  convolution_param {
    num_output: 256
    pad: 0
    kernel_size: 3
    stride: 1
    weight_filler {
      type: "xavier"
    }
    bias_filler {
      type: "constant"
      value: 0
    }
  }
}
layer {
  name: "conv8_2_relu"
  type: "ReLU"
  bottom: "conv8_2"
  top: "conv8_2"
}
layer {
  name: "conv9_1"
  type: "Convolution"
  bottom: "conv8_2"
  top: "conv9_1"
  param {
    lr_mult: 1
    decay_mult: 1
  }
  param {
    lr_mult: 2
    decay_mult: 0
  }
  convolution_param {
    num_output: 128
    pad: 0
    kernel_size: 1
    stride: 1
    weight_filler {
      type: "xavier"
    }
    bias_filler {
      type: "constant"
      value: 0
    }
  }
}
layer {
  name: "conv9_1_relu"
  type: "ReLU"
  bottom: "conv9_1"
  top: "conv9_1"
}
layer {
  name: "conv9_2"
  type: "Convolution"
  bottom: "conv9_1"
  top: "conv9_2"
  param {
    lr_mult: 1
    decay_mult: 1
  }
  param {
    lr_mult: 2
    decay_mult: 0
  }
  convolution_param {
    num_output: 256
    pad: 0
    kernel_size: 3
    stride: 1
    weight_filler {
      type: "xavier"
    }
    bias_filler {
      type: "constant"
      value: 0
    }
  }
}
layer {
  name: "conv9_2_relu"
  type: "ReLU"
  bottom: "conv9_2"
  top: "conv9_2"
}
layer {
  name: "conv4_3_norm"
  type: "Normalize"
  bottom: "conv4_3"
  top: "conv4_3_norm"
  norm_param {
    across_spatial: false
    scale_filler {
      type: "constant"
      value: 20
    }
    channel_shared: false
  }
}
layer {
  name: "conv4_3_norm_mbox_loc"
  type: "Convolution"
  bottom: "conv4_3_norm"
  top: "conv4_3_norm_mbox_loc"
  param {
    lr_mult: 1
    decay_mult: 1
  }
  param {
    lr_mult: 2
    decay_mult: 0
  }
  convolution_param {
    num_output: 16
    pad: 1
    kernel_size: 3
    stride: 1
    weight_filler {
      type: "xavier"
    }
    bias_filler {
      type: "constant"
      value: 0
    }
  }
}
layer {
  name: "conv4_3_norm_mbox_loc_perm"
  type: "Permute"
  bottom: "conv4_3_norm_mbox_loc"
  top: "conv4_3_norm_mbox_loc_perm"
  permute_param {
    order: 0
    order: 2
    order: 3
    order: 1
  }
}
layer {
  name: "conv4_3_norm_mbox_loc_flat"
  type: "Flatten"
  bottom: "conv4_3_norm_mbox_loc_perm"
  top: "conv4_3_norm_mbox_loc_flat"
  flatten_param {
    axis: 1
  }
}
layer {
  name: "conv4_3_norm_mbox_conf"
  type: "Convolution"
  bottom: "conv4_3_norm"
  top: "conv4_3_norm_mbox_conf"
  param {
    lr_mult: 1
    decay_mult: 1
  }
  param {
    lr_mult: 2
    decay_mult: 0
  }
  convolution_param {
    num_output: 8
    pad: 1
    kernel_size: 3
    stride: 1
    weight_filler {
      type: "xavier"
    }
    bias_filler {
      type: "constant"
      value: 0
    }
  }
}
layer {
  name: "conv4_3_norm_mbox_conf_perm"
  type: "Permute"
  bottom: "conv4_3_norm_mbox_conf"
  top: "conv4_3_norm_mbox_conf_perm"
  permute_param {
    order: 0
    order: 2
    order: 3
    order: 1
  }
}
layer {
  name: "conv4_3_norm_mbox_conf_flat"
  type: "Flatten"
  bottom: "conv4_3_norm_mbox_conf_perm"
  top: "conv4_3_norm_mbox_conf_flat"
  flatten_param {
    axis: 1
  }
}
layer {
  name: "conv4_3_norm_mbox_priorbox"
  type: "PriorBox"
  bottom: "conv4_3_norm"
  bottom: "data"
  top: "conv4_3_norm_mbox_priorbox"
  prior_box_param {
    min_size: 15.36
    max_size: 51.2
    aspect_ratio: 2
    flip: true
    clip: false
    variance: 0.1
    variance: 0.1
    variance: 0.2
    variance: 0.2
    step: 8
    offset: 0.5
  }
}
layer {
  name: "fc7_mbox_loc"
  type: "Convolution"
  bottom: "fc7"
  top: "fc7_mbox_loc"
  param {
    lr_mult: 1
    decay_mult: 1
  }
  param {
    lr_mult: 2
    decay_mult: 0
  }
  convolution_param {
    num_output: 24
    pad: 1
    kernel_size: 3
    stride: 1
    weight_filler {
      type: "xavier"
    }
    bias_filler {
      type: "constant"
      value: 0
    }
  }
}
layer {
  name: "fc7_mbox_loc_perm"
  type: "Permute"
  bottom: "fc7_mbox_loc"
  top: "fc7_mbox_loc_perm"
  permute_param {
    order: 0
    order: 2
    order: 3
    order: 1
  }
}
layer {
  name: "fc7_mbox_loc_flat"
  type: "Flatten"
  bottom: "fc7_mbox_loc_perm"
  top: "fc7_mbox_loc_flat"
  flatten_param {
    axis: 1
  }
}
layer {
  name: "fc7_mbox_conf"
  type: "Convolution"
  bottom: "fc7"
  top: "fc7_mbox_conf"
  param {
    lr_mult: 1
    decay_mult: 1
  }
  param {
    lr_mult: 2
    decay_mult: 0
  }
  convolution_param {
    num_output: 12
    pad: 1
    kernel_size: 3
    stride: 1
    weight_filler {
      type: "xavier"
    }
    bias_filler {
      type: "constant"
      value: 0
    }
  }
}
layer {
  name: "fc7_mbox_conf_perm"
  type: "Permute"
  bottom: "fc7_mbox_conf"
  top: "fc7_mbox_conf_perm"
  permute_param {
    order: 0
    order: 2
    order: 3
    order: 1
  }
}
layer {
  name: "fc7_mbox_conf_flat"
  type: "Flatten"
  bottom: "fc7_mbox_conf_perm"
  top: "fc7_mbox_conf_flat"
  flatten_param {
    axis: 1
  }
}
layer {
  name: "fc7_mbox_priorbox"
  type: "PriorBox"
  bottom: "fc7"
  bottom: "data"
  top: "fc7_mbox_priorbox"
  prior_box_param {
    min_size: 51.2
    max_size: 153.6
    aspect_ratio: 2
    aspect_ratio: 3
    flip: true
    clip: false
    variance: 0.1
    variance: 0.1
    variance: 0.2
    variance: 0.2
    step: 16
    offset: 0.5
  }
}
layer {
  name: "conv6_2_mbox_loc"
  type: "Convolution"
  bottom: "conv6_2"
  top: "conv6_2_mbox_loc"
  param {
    lr_mult: 1
    decay_mult: 1
  }
  param {
    lr_mult: 2
    decay_mult: 0
  }
  convolution_param {
    num_output: 24
    pad: 1
    kernel_size: 3
    stride: 1
    weight_filler {
      type: "xavier"
    }
    bias_filler {
      type: "constant"
      value: 0
    }
  }
}
layer {
  name: "conv6_2_mbox_loc_perm"
  type: "Permute"
  bottom: "conv6_2_mbox_loc"
  top: "conv6_2_mbox_loc_perm"
  permute_param {
    order: 0
    order: 2
    order: 3
    order: 1
  }
}
layer {
  name: "conv6_2_mbox_loc_flat"
  type: "Flatten"
  bottom: "conv6_2_mbox_loc_perm"
  top: "conv6_2_mbox_loc_flat"
  flatten_param {
    axis: 1
  }
}
layer {
  name: "conv6_2_mbox_conf"
  type: "Convolution"
  bottom: "conv6_2"
  top: "conv6_2_mbox_conf"
  param {
    lr_mult: 1
    decay_mult: 1
  }
  param {
    lr_mult: 2
    decay_mult: 0
  }
  convolution_param {
    num_output: 12
    pad: 1
    kernel_size: 3
    stride: 1
    weight_filler {
      type: "xavier"
    }
    bias_filler {
      type: "constant"
      value: 0
    }
  }
}
layer {
  name: "conv6_2_mbox_conf_perm"
  type: "Permute"
  bottom: "conv6_2_mbox_conf"
  top: "conv6_2_mbox_conf_perm"
  permute_param {
    order: 0
    order: 2
    order: 3
    order: 1
  }
}
layer {
  name: "conv6_2_mbox_conf_flat"
  type: "Flatten"
  bottom: "conv6_2_mbox_conf_perm"
  top: "conv6_2_mbox_conf_flat"
  flatten_param {
    axis: 1
  }
}
layer {
  name: "conv6_2_mbox_priorbox"
  type: "PriorBox"
  bottom: "conv6_2"
  bottom: "data"
  top: "conv6_2_mbox_priorbox"
  prior_box_param {
    min_size: 153.6
    max_size: 256
    aspect_ratio: 2
    aspect_ratio: 3
    flip: true
    clip: false
    variance: 0.1
    variance: 0.1
    variance: 0.2
    variance: 0.2
    step: 32
    offset: 0.5
  }
}
layer {
  name: "conv7_2_mbox_loc"
  type: "Convolution"
  bottom: "conv7_2"
  top: "conv7_2_mbox_loc"
  param {
    lr_mult: 1
    decay_mult: 1
  }
  param {
    lr_mult: 2
    decay_mult: 0
  }
  convolution_param {
    num_output: 24
    pad: 1
    kernel_size: 3
    stride: 1
    weight_filler {
      type: "xavier"
    }
    bias_filler {
      type: "constant"
      value: 0
    }
  }
}
layer {
  name: "conv7_2_mbox_loc_perm"
  type: "Permute"
  bottom: "conv7_2_mbox_loc"
  top: "conv7_2_mbox_loc_perm"
  permute_param {
    order: 0
    order: 2
    order: 3
    order: 1
  }
}
layer {
  name: "conv7_2_mbox_loc_flat"
  type: "Flatten"
  bottom: "conv7_2_mbox_loc_perm"
  top: "conv7_2_mbox_loc_flat"
  flatten_param {
    axis: 1
  }
}
layer {
  name: "conv7_2_mbox_conf"
  type: "Convolution"
  bottom: "conv7_2"
  top: "conv7_2_mbox_conf"
  param {
    lr_mult: 1
    decay_mult: 1
  }
  param {
    lr_mult: 2
    decay_mult: 0
  }
  convolution_param {
    num_output: 12
    pad: 1
    kernel_size: 3
    stride: 1
    weight_filler {
      type: "xavier"
    }
    bias_filler {
      type: "constant"
      value: 0
    }
  }
}
layer {
  name: "conv7_2_mbox_conf_perm"
  type: "Permute"
  bottom: "conv7_2_mbox_conf"
  top: "conv7_2_mbox_conf_perm"
  permute_param {
    order: 0
    order: 2
    order: 3
    order: 1
  }
}
layer {
  name: "conv7_2_mbox_conf_flat"
  type: "Flatten"
  bottom: "conv7_2_mbox_conf_perm"
  top: "conv7_2_mbox_conf_flat"
  flatten_param {
    axis: 1
  }
}
layer {
  name: "conv7_2_mbox_priorbox"
  type: "PriorBox"
  bottom: "conv7_2"
  bottom: "data"
  top: "conv7_2_mbox_priorbox"
  prior_box_param {
    min_size: 256
    max_size: 358.4
    aspect_ratio: 2
    aspect_ratio: 3
    flip: true
    clip: false
    variance: 0.1
    variance: 0.1
    variance: 0.2
    variance: 0.2
    step: 64
    offset: 0.5
  }
}
layer {
  name: "conv8_2_mbox_loc"
  type: "Convolution"
  bottom: "conv8_2"
  top: "conv8_2_mbox_loc"
  param {
    lr_mult: 1
    decay_mult: 1
  }
  param {
    lr_mult: 2
    decay_mult: 0
  }
  convolution_param {
    num_output: 16
    pad: 1
    kernel_size: 3
    stride: 1
    weight_filler {
      type: "xavier"
    }
    bias_filler {
      type: "constant"
      value: 0
    }
  }
}
layer {
  name: "conv8_2_mbox_loc_perm"
  type: "Permute"
  bottom: "conv8_2_mbox_loc"
  top: "conv8_2_mbox_loc_perm"
  permute_param {
    order: 0
    order: 2
    order: 3
    order: 1
  }
}
layer {
  name: "conv8_2_mbox_loc_flat"
  type: "Flatten"
  bottom: "conv8_2_mbox_loc_perm"
  top: "conv8_2_mbox_loc_flat"
  flatten_param {
    axis: 1
  }
}
layer {
  name: "conv8_2_mbox_conf"
  type: "Convolution"
  bottom: "conv8_2"
  top: "conv8_2_mbox_conf"
  param {
    lr_mult: 1
    decay_mult: 1
  }
  param {
    lr_mult: 2
    decay_mult: 0
  }
  convolution_param {
    num_output: 8
    pad: 1
    kernel_size: 3
    stride: 1
    weight_filler {
      type: "xavier"
    }
    bias_filler {
      type: "constant"
      value: 0
    }
  }
}
layer {
  name: "conv8_2_mbox_conf_perm"
  type: "Permute"
  bottom: "conv8_2_mbox_conf"
  top: "conv8_2_mbox_conf_perm"
  permute_param {
    order: 0
    order: 2
    order: 3
    order: 1
  }
}
layer {
  name: "conv8_2_mbox_conf_flat"
  type: "Flatten"
  bottom: "conv8_2_mbox_conf_perm"
  top: "conv8_2_mbox_conf_flat"
  flatten_param {
    axis: 1
  }
}
layer {
  name: "conv8_2_mbox_priorbox"
  type: "PriorBox"
  bottom: "conv8_2"
  bottom: "data"
  top: "conv8_2_mbox_priorbox"
  prior_box_param {
    min_size: 358.4
    max_size: 460.8
    aspect_ratio: 2
    flip: true
    clip: false
    variance: 0.1
    variance: 0.1
    variance: 0.2
    variance: 0.2
    step: 128
    offset: 0.5
  }
}
layer {
  name: "conv9_2_mbox_loc"
  type: "Convolution"
  bottom: "conv9_2"
  top: "conv9_2_mbox_loc"
  param {
    lr_mult: 1
    decay_mult: 1
  }
  param {
    lr_mult: 2
    decay_mult: 0
  }
  convolution_param {
    num_output: 16
    pad: 1
    kernel_size: 3
    stride: 1
    weight_filler {
      type: "xavier"
    }
    bias_filler {
      type: "constant"
      value: 0
    }
  }
}
layer {
  name: "conv9_2_mbox_loc_perm"
  type: "Permute"
  bottom: "conv9_2_mbox_loc"
  top: "conv9_2_mbox_loc_perm"
  permute_param {
    order: 0
    order: 2
    order: 3
    order: 1
  }
}
layer {
  name: "conv9_2_mbox_loc_flat"
  type: "Flatten"
  bottom: "conv9_2_mbox_loc_perm"
  top: "conv9_2_mbox_loc_flat"
  flatten_param {
    axis: 1
  }
}
layer {
  name: "conv9_2_mbox_conf"
  type: "Convolution"
  bottom: "conv9_2"
  top: "conv9_2_mbox_conf"
  param {
    lr_mult: 1
    decay_mult: 1
  }
  param {
    lr_mult: 2
    decay_mult: 0
  }
  convolution_param {
    num_output: 8
    pad: 1
    kernel_size: 3
    stride: 1
    weight_filler {
      type: "xavier"
    }
    bias_filler {
      type: "constant"
      value: 0
    }
  }
}
layer {
  name: "conv9_2_mbox_conf_perm"
  type: "Permute"
  bottom: "conv9_2_mbox_conf"
  top: "conv9_2_mbox_conf_perm"
  permute_param {
    order: 0
    order: 2
    order: 3
    order: 1
  }
}
layer {
  name: "conv9_2_mbox_conf_flat"
  type: "Flatten"
  bottom: "conv9_2_mbox_conf_perm"
  top: "conv9_2_mbox_conf_flat"
  flatten_param {
    axis: 1
  }
}
layer {
  name: "conv9_2_mbox_priorbox"
  type: "PriorBox"
  bottom: "conv9_2"
  bottom: "data"
  top: "conv9_2_mbox_priorbox"
  prior_box_param {
    min_size: 460.8
    max_size: 563.2
    aspect_ratio: 2
    flip: true
    clip: false
    variance: 0.1
    variance: 0.1
    variance: 0.2
    variance: 0.2
    step: 256
    offset: 0.5
  }
}
layer {
  name: "mbox_loc"
  type: "Concat"
  bottom: "conv4_3_norm_mbox_loc_flat"
  bottom: "fc7_mbox_loc_flat"
  bottom: "conv6_2_mbox_loc_flat"
  bottom: "conv7_2_mbox_loc_flat"
  bottom: "conv8_2_mbox_loc_flat"
  bottom: "conv9_2_mbox_loc_flat"
  top: "mbox_loc"
  concat_param {
    axis: 1
  }
}
layer {
  name: "mbox_conf"
  type: "Concat"
  bottom: "conv4_3_norm_mbox_conf_flat"
  bottom: "fc7_mbox_conf_flat"
  bottom: "conv6_2_mbox_conf_flat"
  bottom: "conv7_2_mbox_conf_flat"
  bottom: "conv8_2_mbox_conf_flat"
  bottom: "conv9_2_mbox_conf_flat"
  top: "mbox_conf"
  concat_param {
    axis: 1
  }
}
layer {
  name: "mbox_priorbox"
  type: "Concat"
  bottom: "conv4_3_norm_mbox_priorbox"
  bottom: "fc7_mbox_priorbox"
  bottom: "conv6_2_mbox_priorbox"
  bottom: "conv7_2_mbox_priorbox"
  bottom: "conv8_2_mbox_priorbox"
  bottom: "conv9_2_mbox_priorbox"
  top: "mbox_priorbox"
  concat_param {
    axis: 2
  }
}
layer {
  name: "mbox_conf_reshape"
  type: "Reshape"
  bottom: "mbox_conf"
  top: "mbox_conf_reshape"
  reshape_param {
    shape {
      dim: 0
      dim: -1
      dim: 2
    }
  }
}
layer {
  name: "mbox_conf_softmax"
  type: "Softmax"
  bottom: "mbox_conf_reshape"
  top: "mbox_conf_softmax"
  softmax_param {
    axis: 2
  }
}
layer {
  name: "mbox_conf_flatten"
  type: "Flatten"
  bottom: "mbox_conf_softmax"
  top: "mbox_conf_flatten"
  flatten_param {
    axis: 1
  }
}
layer {
  name: "detection_out"
  type: "DetectionOutput"
  bottom: "mbox_loc"
  bottom: "mbox_conf_flatten"
  bottom: "mbox_priorbox"
  top: "detection_out"
  include {
    phase: TEST
  }
  detection_output_param {
    num_classes: 2
    share_location: true
    background_label_id: 0
    nms_param {
      nms_threshold: 0.45
      top_k: 400
    }
    save_output_param {
      output_directory: "/home/qif/PycharmProjects/caffe_detection/working_dir/meter/det_result/SSD_512x512"
      output_name_prefix: "comp4_det_test_"
      output_format: "VOC"
      label_map_file: "/home/qif/data/meter_detection/labelmap_meter.prototxt"
      name_size_file: "/home/qif/data/meter_detection/val_name_size.txt"
      num_test_image: 543
    }
    code_type: CENTER_SIZE
    keep_top_k: 300
    confidence_threshold: 0.01
  }
}
layer {
  name: "detection_eval"
  type: "DetectionEvaluate"
  bottom: "detection_out"
  bottom: "label"
  top: "detection_eval"
  include {
    phase: TEST
  }
  detection_evaluate_param {
    num_classes: 2
    background_label_id: 0
    overlap_threshold: 0.5
    evaluate_difficult_gt: false
    name_size_file: "/home/qif/data/meter_detection/val_name_size.txt"
  }
}
I0106 18:20:56.502869 32441 layer_factory.hpp:77] Creating layer data
I0106 18:20:56.502918 32441 net.cpp:100] Creating Layer data
I0106 18:20:56.502924 32441 net.cpp:408] data -> data
I0106 18:20:56.502931 32441 net.cpp:408] data -> label
I0106 18:20:56.503371 32467 db_lmdb.cpp:35] Opened lmdb /home/qif/data/meter_detection/lmdb/val_lmdb
I0106 18:20:56.505542 32441 annotated_data_layer.cpp:62] output data size: 1,3,512,512
I0106 18:20:56.509910 32441 net.cpp:150] Setting up data
I0106 18:20:56.509927 32441 net.cpp:157] Top shape: 1 3 512 512 (786432)
I0106 18:20:56.509933 32441 net.cpp:157] Top shape: 1 1 1 8 (8)
I0106 18:20:56.509936 32441 net.cpp:165] Memory required for data: 3145760
I0106 18:20:56.509939 32441 layer_factory.hpp:77] Creating layer data_data_0_split
I0106 18:20:56.509948 32441 net.cpp:100] Creating Layer data_data_0_split
I0106 18:20:56.509950 32441 net.cpp:434] data_data_0_split <- data
I0106 18:20:56.509956 32441 net.cpp:408] data_data_0_split -> data_data_0_split_0
I0106 18:20:56.509963 32441 net.cpp:408] data_data_0_split -> data_data_0_split_1
I0106 18:20:56.509966 32441 net.cpp:408] data_data_0_split -> data_data_0_split_2
I0106 18:20:56.509970 32441 net.cpp:408] data_data_0_split -> data_data_0_split_3
I0106 18:20:56.509974 32441 net.cpp:408] data_data_0_split -> data_data_0_split_4
I0106 18:20:56.509980 32441 net.cpp:408] data_data_0_split -> data_data_0_split_5
I0106 18:20:56.509985 32441 net.cpp:408] data_data_0_split -> data_data_0_split_6
I0106 18:20:56.510063 32441 net.cpp:150] Setting up data_data_0_split
I0106 18:20:56.510067 32441 net.cpp:157] Top shape: 1 3 512 512 (786432)
I0106 18:20:56.510083 32441 net.cpp:157] Top shape: 1 3 512 512 (786432)
I0106 18:20:56.510087 32441 net.cpp:157] Top shape: 1 3 512 512 (786432)
I0106 18:20:56.510089 32441 net.cpp:157] Top shape: 1 3 512 512 (786432)
I0106 18:20:56.510093 32441 net.cpp:157] Top shape: 1 3 512 512 (786432)
I0106 18:20:56.510095 32441 net.cpp:157] Top shape: 1 3 512 512 (786432)
I0106 18:20:56.510097 32441 net.cpp:157] Top shape: 1 3 512 512 (786432)
I0106 18:20:56.510102 32441 net.cpp:165] Memory required for data: 25165856
I0106 18:20:56.510103 32441 layer_factory.hpp:77] Creating layer conv1_1
I0106 18:20:56.510110 32441 net.cpp:100] Creating Layer conv1_1
I0106 18:20:56.510113 32441 net.cpp:434] conv1_1 <- data_data_0_split_0
I0106 18:20:56.510118 32441 net.cpp:408] conv1_1 -> conv1_1
I0106 18:20:56.511786 32441 net.cpp:150] Setting up conv1_1
I0106 18:20:56.511798 32441 net.cpp:157] Top shape: 1 64 512 512 (16777216)
I0106 18:20:56.511802 32441 net.cpp:165] Memory required for data: 92274720
I0106 18:20:56.511811 32441 layer_factory.hpp:77] Creating layer relu1_1
I0106 18:20:56.511816 32441 net.cpp:100] Creating Layer relu1_1
I0106 18:20:56.511818 32441 net.cpp:434] relu1_1 <- conv1_1
I0106 18:20:56.511821 32441 net.cpp:395] relu1_1 -> conv1_1 (in-place)
I0106 18:20:56.514204 32441 net.cpp:150] Setting up relu1_1
I0106 18:20:56.514214 32441 net.cpp:157] Top shape: 1 64 512 512 (16777216)
I0106 18:20:56.514219 32441 net.cpp:165] Memory required for data: 159383584
I0106 18:20:56.514221 32441 layer_factory.hpp:77] Creating layer conv1_2
I0106 18:20:56.514233 32441 net.cpp:100] Creating Layer conv1_2
I0106 18:20:56.514236 32441 net.cpp:434] conv1_2 <- conv1_1
I0106 18:20:56.514241 32441 net.cpp:408] conv1_2 -> conv1_2
I0106 18:20:56.515815 32441 net.cpp:150] Setting up conv1_2
I0106 18:20:56.515826 32441 net.cpp:157] Top shape: 1 64 512 512 (16777216)
I0106 18:20:56.515830 32441 net.cpp:165] Memory required for data: 226492448
I0106 18:20:56.515836 32441 layer_factory.hpp:77] Creating layer relu1_2
I0106 18:20:56.515841 32441 net.cpp:100] Creating Layer relu1_2
I0106 18:20:56.515843 32441 net.cpp:434] relu1_2 <- conv1_2
I0106 18:20:56.515847 32441 net.cpp:395] relu1_2 -> conv1_2 (in-place)
I0106 18:20:56.516079 32441 net.cpp:150] Setting up relu1_2
I0106 18:20:56.516085 32441 net.cpp:157] Top shape: 1 64 512 512 (16777216)
I0106 18:20:56.516089 32441 net.cpp:165] Memory required for data: 293601312
I0106 18:20:56.516091 32441 layer_factory.hpp:77] Creating layer pool1
I0106 18:20:56.516098 32441 net.cpp:100] Creating Layer pool1
I0106 18:20:56.516099 32441 net.cpp:434] pool1 <- conv1_2
I0106 18:20:56.516103 32441 net.cpp:408] pool1 -> pool1
I0106 18:20:56.516134 32441 net.cpp:150] Setting up pool1
I0106 18:20:56.516136 32441 net.cpp:157] Top shape: 1 64 256 256 (4194304)
I0106 18:20:56.516139 32441 net.cpp:165] Memory required for data: 310378528
I0106 18:20:56.516141 32441 layer_factory.hpp:77] Creating layer conv2_1
I0106 18:20:56.516147 32441 net.cpp:100] Creating Layer conv2_1
I0106 18:20:56.516150 32441 net.cpp:434] conv2_1 <- pool1
I0106 18:20:56.516153 32441 net.cpp:408] conv2_1 -> conv2_1
I0106 18:20:56.518218 32441 net.cpp:150] Setting up conv2_1
I0106 18:20:56.518229 32441 net.cpp:157] Top shape: 1 128 256 256 (8388608)
I0106 18:20:56.518232 32441 net.cpp:165] Memory required for data: 343932960
I0106 18:20:56.518239 32441 layer_factory.hpp:77] Creating layer relu2_1
I0106 18:20:56.518244 32441 net.cpp:100] Creating Layer relu2_1
I0106 18:20:56.518246 32441 net.cpp:434] relu2_1 <- conv2_1
I0106 18:20:56.518249 32441 net.cpp:395] relu2_1 -> conv2_1 (in-place)
I0106 18:20:56.518580 32441 net.cpp:150] Setting up relu2_1
I0106 18:20:56.518589 32441 net.cpp:157] Top shape: 1 128 256 256 (8388608)
I0106 18:20:56.518592 32441 net.cpp:165] Memory required for data: 377487392
I0106 18:20:56.518594 32441 layer_factory.hpp:77] Creating layer conv2_2
I0106 18:20:56.518604 32441 net.cpp:100] Creating Layer conv2_2
I0106 18:20:56.518606 32441 net.cpp:434] conv2_2 <- conv2_1
I0106 18:20:56.518610 32441 net.cpp:408] conv2_2 -> conv2_2
I0106 18:20:56.522161 32441 net.cpp:150] Setting up conv2_2
I0106 18:20:56.522181 32441 net.cpp:157] Top shape: 1 128 256 256 (8388608)
I0106 18:20:56.522186 32441 net.cpp:165] Memory required for data: 411041824
I0106 18:20:56.522198 32441 layer_factory.hpp:77] Creating layer relu2_2
I0106 18:20:56.522204 32441 net.cpp:100] Creating Layer relu2_2
I0106 18:20:56.522207 32441 net.cpp:434] relu2_2 <- conv2_2
I0106 18:20:56.522210 32441 net.cpp:395] relu2_2 -> conv2_2 (in-place)
I0106 18:20:56.522555 32441 net.cpp:150] Setting up relu2_2
I0106 18:20:56.522563 32441 net.cpp:157] Top shape: 1 128 256 256 (8388608)
I0106 18:20:56.522567 32441 net.cpp:165] Memory required for data: 444596256
I0106 18:20:56.522568 32441 layer_factory.hpp:77] Creating layer pool2
I0106 18:20:56.522575 32441 net.cpp:100] Creating Layer pool2
I0106 18:20:56.522578 32441 net.cpp:434] pool2 <- conv2_2
I0106 18:20:56.522583 32441 net.cpp:408] pool2 -> pool2
I0106 18:20:56.522614 32441 net.cpp:150] Setting up pool2
I0106 18:20:56.522616 32441 net.cpp:157] Top shape: 1 128 128 128 (2097152)
I0106 18:20:56.522619 32441 net.cpp:165] Memory required for data: 452984864
I0106 18:20:56.522621 32441 layer_factory.hpp:77] Creating layer conv3_1
I0106 18:20:56.522631 32441 net.cpp:100] Creating Layer conv3_1
I0106 18:20:56.522634 32441 net.cpp:434] conv3_1 <- pool2
I0106 18:20:56.522637 32441 net.cpp:408] conv3_1 -> conv3_1
I0106 18:20:56.525581 32441 net.cpp:150] Setting up conv3_1
I0106 18:20:56.525591 32441 net.cpp:157] Top shape: 1 256 128 128 (4194304)
I0106 18:20:56.525595 32441 net.cpp:165] Memory required for data: 469762080
I0106 18:20:56.525602 32441 layer_factory.hpp:77] Creating layer relu3_1
I0106 18:20:56.525606 32441 net.cpp:100] Creating Layer relu3_1
I0106 18:20:56.525609 32441 net.cpp:434] relu3_1 <- conv3_1
I0106 18:20:56.525612 32441 net.cpp:395] relu3_1 -> conv3_1 (in-place)
I0106 18:20:56.526481 32441 net.cpp:150] Setting up relu3_1
I0106 18:20:56.526491 32441 net.cpp:157] Top shape: 1 256 128 128 (4194304)
I0106 18:20:56.526495 32441 net.cpp:165] Memory required for data: 486539296
I0106 18:20:56.526499 32441 layer_factory.hpp:77] Creating layer conv3_2
I0106 18:20:56.526508 32441 net.cpp:100] Creating Layer conv3_2
I0106 18:20:56.526510 32441 net.cpp:434] conv3_2 <- conv3_1
I0106 18:20:56.526515 32441 net.cpp:408] conv3_2 -> conv3_2
I0106 18:20:56.530721 32441 net.cpp:150] Setting up conv3_2
I0106 18:20:56.530740 32441 net.cpp:157] Top shape: 1 256 128 128 (4194304)
I0106 18:20:56.530745 32441 net.cpp:165] Memory required for data: 503316512
I0106 18:20:56.530751 32441 layer_factory.hpp:77] Creating layer relu3_2
I0106 18:20:56.530756 32441 net.cpp:100] Creating Layer relu3_2
I0106 18:20:56.530759 32441 net.cpp:434] relu3_2 <- conv3_2
I0106 18:20:56.530764 32441 net.cpp:395] relu3_2 -> conv3_2 (in-place)
I0106 18:20:56.532044 32441 net.cpp:150] Setting up relu3_2
I0106 18:20:56.532054 32441 net.cpp:157] Top shape: 1 256 128 128 (4194304)
I0106 18:20:56.532058 32441 net.cpp:165] Memory required for data: 520093728
I0106 18:20:56.532060 32441 layer_factory.hpp:77] Creating layer conv3_3
I0106 18:20:56.532073 32441 net.cpp:100] Creating Layer conv3_3
I0106 18:20:56.532075 32441 net.cpp:434] conv3_3 <- conv3_2
I0106 18:20:56.532078 32441 net.cpp:408] conv3_3 -> conv3_3
I0106 18:20:56.536651 32441 net.cpp:150] Setting up conv3_3
I0106 18:20:56.536664 32441 net.cpp:157] Top shape: 1 256 128 128 (4194304)
I0106 18:20:56.536669 32441 net.cpp:165] Memory required for data: 536870944
I0106 18:20:56.536674 32441 layer_factory.hpp:77] Creating layer relu3_3
I0106 18:20:56.536680 32441 net.cpp:100] Creating Layer relu3_3
I0106 18:20:56.536684 32441 net.cpp:434] relu3_3 <- conv3_3
I0106 18:20:56.536687 32441 net.cpp:395] relu3_3 -> conv3_3 (in-place)
I0106 18:20:56.536921 32441 net.cpp:150] Setting up relu3_3
I0106 18:20:56.536927 32441 net.cpp:157] Top shape: 1 256 128 128 (4194304)
I0106 18:20:56.536931 32441 net.cpp:165] Memory required for data: 553648160
I0106 18:20:56.536932 32441 layer_factory.hpp:77] Creating layer pool3
I0106 18:20:56.536957 32441 net.cpp:100] Creating Layer pool3
I0106 18:20:56.536959 32441 net.cpp:434] pool3 <- conv3_3
I0106 18:20:56.536963 32441 net.cpp:408] pool3 -> pool3
I0106 18:20:56.536993 32441 net.cpp:150] Setting up pool3
I0106 18:20:56.536998 32441 net.cpp:157] Top shape: 1 256 64 64 (1048576)
I0106 18:20:56.537000 32441 net.cpp:165] Memory required for data: 557842464
I0106 18:20:56.537001 32441 layer_factory.hpp:77] Creating layer conv4_1
I0106 18:20:56.537009 32441 net.cpp:100] Creating Layer conv4_1
I0106 18:20:56.537011 32441 net.cpp:434] conv4_1 <- pool3
I0106 18:20:56.537014 32441 net.cpp:408] conv4_1 -> conv4_1
I0106 18:20:56.544076 32441 net.cpp:150] Setting up conv4_1
I0106 18:20:56.544095 32441 net.cpp:157] Top shape: 1 512 64 64 (2097152)
I0106 18:20:56.544100 32441 net.cpp:165] Memory required for data: 566231072
I0106 18:20:56.544106 32441 layer_factory.hpp:77] Creating layer relu4_1
I0106 18:20:56.544112 32441 net.cpp:100] Creating Layer relu4_1
I0106 18:20:56.544116 32441 net.cpp:434] relu4_1 <- conv4_1
I0106 18:20:56.544121 32441 net.cpp:395] relu4_1 -> conv4_1 (in-place)
I0106 18:20:56.544354 32441 net.cpp:150] Setting up relu4_1
I0106 18:20:56.544360 32441 net.cpp:157] Top shape: 1 512 64 64 (2097152)
I0106 18:20:56.544364 32441 net.cpp:165] Memory required for data: 574619680
I0106 18:20:56.544366 32441 layer_factory.hpp:77] Creating layer conv4_2
I0106 18:20:56.544374 32441 net.cpp:100] Creating Layer conv4_2
I0106 18:20:56.544378 32441 net.cpp:434] conv4_2 <- conv4_1
I0106 18:20:56.544381 32441 net.cpp:408] conv4_2 -> conv4_2
I0106 18:20:56.558930 32441 net.cpp:150] Setting up conv4_2
I0106 18:20:56.558949 32441 net.cpp:157] Top shape: 1 512 64 64 (2097152)
I0106 18:20:56.558955 32441 net.cpp:165] Memory required for data: 583008288
I0106 18:20:56.558965 32441 layer_factory.hpp:77] Creating layer relu4_2
I0106 18:20:56.558972 32441 net.cpp:100] Creating Layer relu4_2
I0106 18:20:56.558976 32441 net.cpp:434] relu4_2 <- conv4_2
I0106 18:20:56.558980 32441 net.cpp:395] relu4_2 -> conv4_2 (in-place)
I0106 18:20:56.559317 32441 net.cpp:150] Setting up relu4_2
I0106 18:20:56.559325 32441 net.cpp:157] Top shape: 1 512 64 64 (2097152)
I0106 18:20:56.559329 32441 net.cpp:165] Memory required for data: 591396896
I0106 18:20:56.559331 32441 layer_factory.hpp:77] Creating layer conv4_3
I0106 18:20:56.559340 32441 net.cpp:100] Creating Layer conv4_3
I0106 18:20:56.559343 32441 net.cpp:434] conv4_3 <- conv4_2
I0106 18:20:56.559346 32441 net.cpp:408] conv4_3 -> conv4_3
I0106 18:20:56.571877 32441 net.cpp:150] Setting up conv4_3
I0106 18:20:56.571893 32441 net.cpp:157] Top shape: 1 512 64 64 (2097152)
I0106 18:20:56.571899 32441 net.cpp:165] Memory required for data: 599785504
I0106 18:20:56.571905 32441 layer_factory.hpp:77] Creating layer relu4_3
I0106 18:20:56.571913 32441 net.cpp:100] Creating Layer relu4_3
I0106 18:20:56.571915 32441 net.cpp:434] relu4_3 <- conv4_3
I0106 18:20:56.571918 32441 net.cpp:395] relu4_3 -> conv4_3 (in-place)
I0106 18:20:56.572245 32441 net.cpp:150] Setting up relu4_3
I0106 18:20:56.572252 32441 net.cpp:157] Top shape: 1 512 64 64 (2097152)
I0106 18:20:56.572257 32441 net.cpp:165] Memory required for data: 608174112
I0106 18:20:56.572258 32441 layer_factory.hpp:77] Creating layer conv4_3_relu4_3_0_split
I0106 18:20:56.572265 32441 net.cpp:100] Creating Layer conv4_3_relu4_3_0_split
I0106 18:20:56.572268 32441 net.cpp:434] conv4_3_relu4_3_0_split <- conv4_3
I0106 18:20:56.572273 32441 net.cpp:408] conv4_3_relu4_3_0_split -> conv4_3_relu4_3_0_split_0
I0106 18:20:56.572278 32441 net.cpp:408] conv4_3_relu4_3_0_split -> conv4_3_relu4_3_0_split_1
I0106 18:20:56.572304 32441 net.cpp:150] Setting up conv4_3_relu4_3_0_split
I0106 18:20:56.572309 32441 net.cpp:157] Top shape: 1 512 64 64 (2097152)
I0106 18:20:56.572311 32441 net.cpp:157] Top shape: 1 512 64 64 (2097152)
I0106 18:20:56.572314 32441 net.cpp:165] Memory required for data: 624951328
I0106 18:20:56.572315 32441 layer_factory.hpp:77] Creating layer pool4
I0106 18:20:56.572319 32441 net.cpp:100] Creating Layer pool4
I0106 18:20:56.572335 32441 net.cpp:434] pool4 <- conv4_3_relu4_3_0_split_0
I0106 18:20:56.572340 32441 net.cpp:408] pool4 -> pool4
I0106 18:20:56.572362 32441 net.cpp:150] Setting up pool4
I0106 18:20:56.572366 32441 net.cpp:157] Top shape: 1 512 32 32 (524288)
I0106 18:20:56.572369 32441 net.cpp:165] Memory required for data: 627048480
I0106 18:20:56.572371 32441 layer_factory.hpp:77] Creating layer conv5_1
I0106 18:20:56.572378 32441 net.cpp:100] Creating Layer conv5_1
I0106 18:20:56.572381 32441 net.cpp:434] conv5_1 <- pool4
I0106 18:20:56.572383 32441 net.cpp:408] conv5_1 -> conv5_1
I0106 18:20:56.584929 32441 net.cpp:150] Setting up conv5_1
I0106 18:20:56.584946 32441 net.cpp:157] Top shape: 1 512 32 32 (524288)
I0106 18:20:56.584951 32441 net.cpp:165] Memory required for data: 629145632
I0106 18:20:56.584957 32441 layer_factory.hpp:77] Creating layer relu5_1
I0106 18:20:56.584964 32441 net.cpp:100] Creating Layer relu5_1
I0106 18:20:56.584967 32441 net.cpp:434] relu5_1 <- conv5_1
I0106 18:20:56.584972 32441 net.cpp:395] relu5_1 -> conv5_1 (in-place)
I0106 18:20:56.586230 32441 net.cpp:150] Setting up relu5_1
I0106 18:20:56.586239 32441 net.cpp:157] Top shape: 1 512 32 32 (524288)
I0106 18:20:56.586243 32441 net.cpp:165] Memory required for data: 631242784
I0106 18:20:56.586246 32441 layer_factory.hpp:77] Creating layer conv5_2
I0106 18:20:56.586256 32441 net.cpp:100] Creating Layer conv5_2
I0106 18:20:56.586258 32441 net.cpp:434] conv5_2 <- conv5_1
I0106 18:20:56.586262 32441 net.cpp:408] conv5_2 -> conv5_2
I0106 18:20:56.598740 32441 net.cpp:150] Setting up conv5_2
I0106 18:20:56.598757 32441 net.cpp:157] Top shape: 1 512 32 32 (524288)
I0106 18:20:56.598762 32441 net.cpp:165] Memory required for data: 633339936
I0106 18:20:56.598767 32441 layer_factory.hpp:77] Creating layer relu5_2
I0106 18:20:56.598773 32441 net.cpp:100] Creating Layer relu5_2
I0106 18:20:56.598776 32441 net.cpp:434] relu5_2 <- conv5_2
I0106 18:20:56.598780 32441 net.cpp:395] relu5_2 -> conv5_2 (in-place)
I0106 18:20:56.599120 32441 net.cpp:150] Setting up relu5_2
I0106 18:20:56.599128 32441 net.cpp:157] Top shape: 1 512 32 32 (524288)
I0106 18:20:56.599131 32441 net.cpp:165] Memory required for data: 635437088
I0106 18:20:56.599133 32441 layer_factory.hpp:77] Creating layer conv5_3
I0106 18:20:56.599144 32441 net.cpp:100] Creating Layer conv5_3
I0106 18:20:56.599146 32441 net.cpp:434] conv5_3 <- conv5_2
I0106 18:20:56.599151 32441 net.cpp:408] conv5_3 -> conv5_3
I0106 18:20:56.611773 32441 net.cpp:150] Setting up conv5_3
I0106 18:20:56.611789 32441 net.cpp:157] Top shape: 1 512 32 32 (524288)
I0106 18:20:56.611795 32441 net.cpp:165] Memory required for data: 637534240
I0106 18:20:56.611800 32441 layer_factory.hpp:77] Creating layer relu5_3
I0106 18:20:56.611809 32441 net.cpp:100] Creating Layer relu5_3
I0106 18:20:56.611811 32441 net.cpp:434] relu5_3 <- conv5_3
I0106 18:20:56.611815 32441 net.cpp:395] relu5_3 -> conv5_3 (in-place)
I0106 18:20:56.612040 32441 net.cpp:150] Setting up relu5_3
I0106 18:20:56.612046 32441 net.cpp:157] Top shape: 1 512 32 32 (524288)
I0106 18:20:56.612049 32441 net.cpp:165] Memory required for data: 639631392
I0106 18:20:56.612051 32441 layer_factory.hpp:77] Creating layer pool5
I0106 18:20:56.612056 32441 net.cpp:100] Creating Layer pool5
I0106 18:20:56.612058 32441 net.cpp:434] pool5 <- conv5_3
I0106 18:20:56.612062 32441 net.cpp:408] pool5 -> pool5
I0106 18:20:56.612088 32441 net.cpp:150] Setting up pool5
I0106 18:20:56.612092 32441 net.cpp:157] Top shape: 1 512 32 32 (524288)
I0106 18:20:56.612095 32441 net.cpp:165] Memory required for data: 641728544
I0106 18:20:56.612097 32441 layer_factory.hpp:77] Creating layer fc6
I0106 18:20:56.612105 32441 net.cpp:100] Creating Layer fc6
I0106 18:20:56.612107 32441 net.cpp:434] fc6 <- pool5
I0106 18:20:56.612110 32441 net.cpp:408] fc6 -> fc6
I0106 18:20:56.634902 32441 net.cpp:150] Setting up fc6
I0106 18:20:56.634919 32441 net.cpp:157] Top shape: 1 1024 32 32 (1048576)
I0106 18:20:56.634925 32441 net.cpp:165] Memory required for data: 645922848
I0106 18:20:56.634949 32441 layer_factory.hpp:77] Creating layer relu6
I0106 18:20:56.634956 32441 net.cpp:100] Creating Layer relu6
I0106 18:20:56.634960 32441 net.cpp:434] relu6 <- fc6
I0106 18:20:56.634964 32441 net.cpp:395] relu6 -> fc6 (in-place)
I0106 18:20:56.635404 32441 net.cpp:150] Setting up relu6
I0106 18:20:56.635412 32441 net.cpp:157] Top shape: 1 1024 32 32 (1048576)
I0106 18:20:56.635416 32441 net.cpp:165] Memory required for data: 650117152
I0106 18:20:56.635418 32441 layer_factory.hpp:77] Creating layer fc7
I0106 18:20:56.635427 32441 net.cpp:100] Creating Layer fc7
I0106 18:20:56.635430 32441 net.cpp:434] fc7 <- fc6
I0106 18:20:56.635434 32441 net.cpp:408] fc7 -> fc7
I0106 18:20:56.642683 32441 net.cpp:150] Setting up fc7
I0106 18:20:56.642697 32441 net.cpp:157] Top shape: 1 1024 32 32 (1048576)
I0106 18:20:56.642704 32441 net.cpp:165] Memory required for data: 654311456
I0106 18:20:56.642709 32441 layer_factory.hpp:77] Creating layer relu7
I0106 18:20:56.642714 32441 net.cpp:100] Creating Layer relu7
I0106 18:20:56.642716 32441 net.cpp:434] relu7 <- fc7
I0106 18:20:56.642719 32441 net.cpp:395] relu7 -> fc7 (in-place)
I0106 18:20:56.642944 32441 net.cpp:150] Setting up relu7
I0106 18:20:56.642951 32441 net.cpp:157] Top shape: 1 1024 32 32 (1048576)
I0106 18:20:56.642954 32441 net.cpp:165] Memory required for data: 658505760
I0106 18:20:56.642956 32441 layer_factory.hpp:77] Creating layer fc7_relu7_0_split
I0106 18:20:56.642961 32441 net.cpp:100] Creating Layer fc7_relu7_0_split
I0106 18:20:56.642964 32441 net.cpp:434] fc7_relu7_0_split <- fc7
I0106 18:20:56.642968 32441 net.cpp:408] fc7_relu7_0_split -> fc7_relu7_0_split_0
I0106 18:20:56.642973 32441 net.cpp:408] fc7_relu7_0_split -> fc7_relu7_0_split_1
I0106 18:20:56.642978 32441 net.cpp:408] fc7_relu7_0_split -> fc7_relu7_0_split_2
I0106 18:20:56.642982 32441 net.cpp:408] fc7_relu7_0_split -> fc7_relu7_0_split_3
I0106 18:20:56.643019 32441 net.cpp:150] Setting up fc7_relu7_0_split
I0106 18:20:56.643023 32441 net.cpp:157] Top shape: 1 1024 32 32 (1048576)
I0106 18:20:56.643028 32441 net.cpp:157] Top shape: 1 1024 32 32 (1048576)
I0106 18:20:56.643030 32441 net.cpp:157] Top shape: 1 1024 32 32 (1048576)
I0106 18:20:56.643033 32441 net.cpp:157] Top shape: 1 1024 32 32 (1048576)
I0106 18:20:56.643035 32441 net.cpp:165] Memory required for data: 675282976
I0106 18:20:56.643038 32441 layer_factory.hpp:77] Creating layer conv6_1
I0106 18:20:56.643045 32441 net.cpp:100] Creating Layer conv6_1
I0106 18:20:56.643049 32441 net.cpp:434] conv6_1 <- fc7_relu7_0_split_0
I0106 18:20:56.643052 32441 net.cpp:408] conv6_1 -> conv6_1
I0106 18:20:56.645723 32441 net.cpp:150] Setting up conv6_1
I0106 18:20:56.645732 32441 net.cpp:157] Top shape: 1 256 32 32 (262144)
I0106 18:20:56.645736 32441 net.cpp:165] Memory required for data: 676331552
I0106 18:20:56.645740 32441 layer_factory.hpp:77] Creating layer conv6_1_relu
I0106 18:20:56.645745 32441 net.cpp:100] Creating Layer conv6_1_relu
I0106 18:20:56.645746 32441 net.cpp:434] conv6_1_relu <- conv6_1
I0106 18:20:56.645750 32441 net.cpp:395] conv6_1_relu -> conv6_1 (in-place)
I0106 18:20:56.646083 32441 net.cpp:150] Setting up conv6_1_relu
I0106 18:20:56.646091 32441 net.cpp:157] Top shape: 1 256 32 32 (262144)
I0106 18:20:56.646095 32441 net.cpp:165] Memory required for data: 677380128
I0106 18:20:56.646096 32441 layer_factory.hpp:77] Creating layer conv6_2
I0106 18:20:56.646104 32441 net.cpp:100] Creating Layer conv6_2
I0106 18:20:56.646106 32441 net.cpp:434] conv6_2 <- conv6_1
I0106 18:20:56.646111 32441 net.cpp:408] conv6_2 -> conv6_2
I0106 18:20:56.653883 32441 net.cpp:150] Setting up conv6_2
I0106 18:20:56.653899 32441 net.cpp:157] Top shape: 1 512 16 16 (131072)
I0106 18:20:56.653905 32441 net.cpp:165] Memory required for data: 677904416
I0106 18:20:56.653915 32441 layer_factory.hpp:77] Creating layer conv6_2_relu
I0106 18:20:56.653924 32441 net.cpp:100] Creating Layer conv6_2_relu
I0106 18:20:56.653928 32441 net.cpp:434] conv6_2_relu <- conv6_2
I0106 18:20:56.653934 32441 net.cpp:395] conv6_2_relu -> conv6_2 (in-place)
I0106 18:20:56.654282 32441 net.cpp:150] Setting up conv6_2_relu
I0106 18:20:56.654290 32441 net.cpp:157] Top shape: 1 512 16 16 (131072)
I0106 18:20:56.654294 32441 net.cpp:165] Memory required for data: 678428704
I0106 18:20:56.654296 32441 layer_factory.hpp:77] Creating layer conv6_2_conv6_2_relu_0_split
I0106 18:20:56.654304 32441 net.cpp:100] Creating Layer conv6_2_conv6_2_relu_0_split
I0106 18:20:56.654306 32441 net.cpp:434] conv6_2_conv6_2_relu_0_split <- conv6_2
I0106 18:20:56.654310 32441 net.cpp:408] conv6_2_conv6_2_relu_0_split -> conv6_2_conv6_2_relu_0_split_0
I0106 18:20:56.654315 32441 net.cpp:408] conv6_2_conv6_2_relu_0_split -> conv6_2_conv6_2_relu_0_split_1
I0106 18:20:56.654318 32441 net.cpp:408] conv6_2_conv6_2_relu_0_split -> conv6_2_conv6_2_relu_0_split_2
I0106 18:20:56.654322 32441 net.cpp:408] conv6_2_conv6_2_relu_0_split -> conv6_2_conv6_2_relu_0_split_3
I0106 18:20:56.654363 32441 net.cpp:150] Setting up conv6_2_conv6_2_relu_0_split
I0106 18:20:56.654367 32441 net.cpp:157] Top shape: 1 512 16 16 (131072)
I0106 18:20:56.654371 32441 net.cpp:157] Top shape: 1 512 16 16 (131072)
I0106 18:20:56.654372 32441 net.cpp:157] Top shape: 1 512 16 16 (131072)
I0106 18:20:56.654374 32441 net.cpp:157] Top shape: 1 512 16 16 (131072)
I0106 18:20:56.654376 32441 net.cpp:165] Memory required for data: 680525856
I0106 18:20:56.654378 32441 layer_factory.hpp:77] Creating layer conv7_1
I0106 18:20:56.654386 32441 net.cpp:100] Creating Layer conv7_1
I0106 18:20:56.654388 32441 net.cpp:434] conv7_1 <- conv6_2_conv6_2_relu_0_split_0
I0106 18:20:56.654392 32441 net.cpp:408] conv7_1 -> conv7_1
I0106 18:20:56.655771 32441 net.cpp:150] Setting up conv7_1
I0106 18:20:56.655779 32441 net.cpp:157] Top shape: 1 128 16 16 (32768)
I0106 18:20:56.655784 32441 net.cpp:165] Memory required for data: 680656928
I0106 18:20:56.655789 32441 layer_factory.hpp:77] Creating layer conv7_1_relu
I0106 18:20:56.655795 32441 net.cpp:100] Creating Layer conv7_1_relu
I0106 18:20:56.655798 32441 net.cpp:434] conv7_1_relu <- conv7_1
I0106 18:20:56.655802 32441 net.cpp:395] conv7_1_relu -> conv7_1 (in-place)
I0106 18:20:56.656132 32441 net.cpp:150] Setting up conv7_1_relu
I0106 18:20:56.656141 32441 net.cpp:157] Top shape: 1 128 16 16 (32768)
I0106 18:20:56.656144 32441 net.cpp:165] Memory required for data: 680788000
I0106 18:20:56.656147 32441 layer_factory.hpp:77] Creating layer conv7_2
I0106 18:20:56.656155 32441 net.cpp:100] Creating Layer conv7_2
I0106 18:20:56.656159 32441 net.cpp:434] conv7_2 <- conv7_1
I0106 18:20:56.656164 32441 net.cpp:408] conv7_2 -> conv7_2
I0106 18:20:56.658851 32441 net.cpp:150] Setting up conv7_2
I0106 18:20:56.658860 32441 net.cpp:157] Top shape: 1 256 8 8 (16384)
I0106 18:20:56.658864 32441 net.cpp:165] Memory required for data: 680853536
I0106 18:20:56.658867 32441 layer_factory.hpp:77] Creating layer conv7_2_relu
I0106 18:20:56.658871 32441 net.cpp:100] Creating Layer conv7_2_relu
I0106 18:20:56.658874 32441 net.cpp:434] conv7_2_relu <- conv7_2
I0106 18:20:56.658877 32441 net.cpp:395] conv7_2_relu -> conv7_2 (in-place)
I0106 18:20:56.659202 32441 net.cpp:150] Setting up conv7_2_relu
I0106 18:20:56.659209 32441 net.cpp:157] Top shape: 1 256 8 8 (16384)
I0106 18:20:56.659214 32441 net.cpp:165] Memory required for data: 680919072
I0106 18:20:56.659215 32441 layer_factory.hpp:77] Creating layer conv7_2_conv7_2_relu_0_split
I0106 18:20:56.659221 32441 net.cpp:100] Creating Layer conv7_2_conv7_2_relu_0_split
I0106 18:20:56.659224 32441 net.cpp:434] conv7_2_conv7_2_relu_0_split <- conv7_2
I0106 18:20:56.659227 32441 net.cpp:408] conv7_2_conv7_2_relu_0_split -> conv7_2_conv7_2_relu_0_split_0
I0106 18:20:56.659231 32441 net.cpp:408] conv7_2_conv7_2_relu_0_split -> conv7_2_conv7_2_relu_0_split_1
I0106 18:20:56.659235 32441 net.cpp:408] conv7_2_conv7_2_relu_0_split -> conv7_2_conv7_2_relu_0_split_2
I0106 18:20:56.659238 32441 net.cpp:408] conv7_2_conv7_2_relu_0_split -> conv7_2_conv7_2_relu_0_split_3
I0106 18:20:56.659276 32441 net.cpp:150] Setting up conv7_2_conv7_2_relu_0_split
I0106 18:20:56.659281 32441 net.cpp:157] Top shape: 1 256 8 8 (16384)
I0106 18:20:56.659293 32441 net.cpp:157] Top shape: 1 256 8 8 (16384)
I0106 18:20:56.659296 32441 net.cpp:157] Top shape: 1 256 8 8 (16384)
I0106 18:20:56.659297 32441 net.cpp:157] Top shape: 1 256 8 8 (16384)
I0106 18:20:56.659301 32441 net.cpp:165] Memory required for data: 681181216
I0106 18:20:56.659301 32441 layer_factory.hpp:77] Creating layer conv8_1
I0106 18:20:56.659308 32441 net.cpp:100] Creating Layer conv8_1
I0106 18:20:56.659310 32441 net.cpp:434] conv8_1 <- conv7_2_conv7_2_relu_0_split_0
I0106 18:20:56.659314 32441 net.cpp:408] conv8_1 -> conv8_1
I0106 18:20:56.661581 32441 net.cpp:150] Setting up conv8_1
I0106 18:20:56.661589 32441 net.cpp:157] Top shape: 1 128 8 8 (8192)
I0106 18:20:56.661593 32441 net.cpp:165] Memory required for data: 681213984
I0106 18:20:56.661597 32441 layer_factory.hpp:77] Creating layer conv8_1_relu
I0106 18:20:56.661602 32441 net.cpp:100] Creating Layer conv8_1_relu
I0106 18:20:56.661604 32441 net.cpp:434] conv8_1_relu <- conv8_1
I0106 18:20:56.661607 32441 net.cpp:395] conv8_1_relu -> conv8_1 (in-place)
I0106 18:20:56.661835 32441 net.cpp:150] Setting up conv8_1_relu
I0106 18:20:56.661867 32441 net.cpp:157] Top shape: 1 128 8 8 (8192)
I0106 18:20:56.661871 32441 net.cpp:165] Memory required for data: 681246752
I0106 18:20:56.661873 32441 layer_factory.hpp:77] Creating layer conv8_2
I0106 18:20:56.661896 32441 net.cpp:100] Creating Layer conv8_2
I0106 18:20:56.661900 32441 net.cpp:434] conv8_2 <- conv8_1
I0106 18:20:56.661903 32441 net.cpp:408] conv8_2 -> conv8_2
I0106 18:20:56.664721 32441 net.cpp:150] Setting up conv8_2
I0106 18:20:56.664729 32441 net.cpp:157] Top shape: 1 256 6 6 (9216)
I0106 18:20:56.664733 32441 net.cpp:165] Memory required for data: 681283616
I0106 18:20:56.664737 32441 layer_factory.hpp:77] Creating layer conv8_2_relu
I0106 18:20:56.664741 32441 net.cpp:100] Creating Layer conv8_2_relu
I0106 18:20:56.664743 32441 net.cpp:434] conv8_2_relu <- conv8_2
I0106 18:20:56.664746 32441 net.cpp:395] conv8_2_relu -> conv8_2 (in-place)
I0106 18:20:56.664971 32441 net.cpp:150] Setting up conv8_2_relu
I0106 18:20:56.664978 32441 net.cpp:157] Top shape: 1 256 6 6 (9216)
I0106 18:20:56.664980 32441 net.cpp:165] Memory required for data: 681320480
I0106 18:20:56.664983 32441 layer_factory.hpp:77] Creating layer conv8_2_conv8_2_relu_0_split
I0106 18:20:56.664988 32441 net.cpp:100] Creating Layer conv8_2_conv8_2_relu_0_split
I0106 18:20:56.664989 32441 net.cpp:434] conv8_2_conv8_2_relu_0_split <- conv8_2
I0106 18:20:56.664994 32441 net.cpp:408] conv8_2_conv8_2_relu_0_split -> conv8_2_conv8_2_relu_0_split_0
I0106 18:20:56.664997 32441 net.cpp:408] conv8_2_conv8_2_relu_0_split -> conv8_2_conv8_2_relu_0_split_1
I0106 18:20:56.665000 32441 net.cpp:408] conv8_2_conv8_2_relu_0_split -> conv8_2_conv8_2_relu_0_split_2
I0106 18:20:56.665004 32441 net.cpp:408] conv8_2_conv8_2_relu_0_split -> conv8_2_conv8_2_relu_0_split_3
I0106 18:20:56.665045 32441 net.cpp:150] Setting up conv8_2_conv8_2_relu_0_split
I0106 18:20:56.665048 32441 net.cpp:157] Top shape: 1 256 6 6 (9216)
I0106 18:20:56.665050 32441 net.cpp:157] Top shape: 1 256 6 6 (9216)
I0106 18:20:56.665053 32441 net.cpp:157] Top shape: 1 256 6 6 (9216)
I0106 18:20:56.665055 32441 net.cpp:157] Top shape: 1 256 6 6 (9216)
I0106 18:20:56.665057 32441 net.cpp:165] Memory required for data: 681467936
I0106 18:20:56.665058 32441 layer_factory.hpp:77] Creating layer conv9_1
I0106 18:20:56.665064 32441 net.cpp:100] Creating Layer conv9_1
I0106 18:20:56.665067 32441 net.cpp:434] conv9_1 <- conv8_2_conv8_2_relu_0_split_0
I0106 18:20:56.665071 32441 net.cpp:408] conv9_1 -> conv9_1
I0106 18:20:56.667222 32441 net.cpp:150] Setting up conv9_1
I0106 18:20:56.667230 32441 net.cpp:157] Top shape: 1 128 6 6 (4608)
I0106 18:20:56.667233 32441 net.cpp:165] Memory required for data: 681486368
I0106 18:20:56.667237 32441 layer_factory.hpp:77] Creating layer conv9_1_relu
I0106 18:20:56.667243 32441 net.cpp:100] Creating Layer conv9_1_relu
I0106 18:20:56.667245 32441 net.cpp:434] conv9_1_relu <- conv9_1
I0106 18:20:56.667248 32441 net.cpp:395] conv9_1_relu -> conv9_1 (in-place)
I0106 18:20:56.667591 32441 net.cpp:150] Setting up conv9_1_relu
I0106 18:20:56.667598 32441 net.cpp:157] Top shape: 1 128 6 6 (4608)
I0106 18:20:56.667603 32441 net.cpp:165] Memory required for data: 681504800
I0106 18:20:56.667604 32441 layer_factory.hpp:77] Creating layer conv9_2
I0106 18:20:56.667613 32441 net.cpp:100] Creating Layer conv9_2
I0106 18:20:56.667615 32441 net.cpp:434] conv9_2 <- conv9_1
I0106 18:20:56.667619 32441 net.cpp:408] conv9_2 -> conv9_2
I0106 18:20:56.670388 32441 net.cpp:150] Setting up conv9_2
I0106 18:20:56.670397 32441 net.cpp:157] Top shape: 1 256 4 4 (4096)
I0106 18:20:56.670400 32441 net.cpp:165] Memory required for data: 681521184
I0106 18:20:56.670404 32441 layer_factory.hpp:77] Creating layer conv9_2_relu
I0106 18:20:56.670409 32441 net.cpp:100] Creating Layer conv9_2_relu
I0106 18:20:56.670413 32441 net.cpp:434] conv9_2_relu <- conv9_2
I0106 18:20:56.670415 32441 net.cpp:395] conv9_2_relu -> conv9_2 (in-place)
I0106 18:20:56.670811 32441 net.cpp:150] Setting up conv9_2_relu
I0106 18:20:56.670819 32441 net.cpp:157] Top shape: 1 256 4 4 (4096)
I0106 18:20:56.670822 32441 net.cpp:165] Memory required for data: 681537568
I0106 18:20:56.670825 32441 layer_factory.hpp:77] Creating layer conv9_2_conv9_2_relu_0_split
I0106 18:20:56.670831 32441 net.cpp:100] Creating Layer conv9_2_conv9_2_relu_0_split
I0106 18:20:56.670835 32441 net.cpp:434] conv9_2_conv9_2_relu_0_split <- conv9_2
I0106 18:20:56.670840 32441 net.cpp:408] conv9_2_conv9_2_relu_0_split -> conv9_2_conv9_2_relu_0_split_0
I0106 18:20:56.670845 32441 net.cpp:408] conv9_2_conv9_2_relu_0_split -> conv9_2_conv9_2_relu_0_split_1
I0106 18:20:56.670847 32441 net.cpp:408] conv9_2_conv9_2_relu_0_split -> conv9_2_conv9_2_relu_0_split_2
I0106 18:20:56.670881 32441 net.cpp:150] Setting up conv9_2_conv9_2_relu_0_split
I0106 18:20:56.670883 32441 net.cpp:157] Top shape: 1 256 4 4 (4096)
I0106 18:20:56.670886 32441 net.cpp:157] Top shape: 1 256 4 4 (4096)
I0106 18:20:56.670888 32441 net.cpp:157] Top shape: 1 256 4 4 (4096)
I0106 18:20:56.670890 32441 net.cpp:165] Memory required for data: 681586720
I0106 18:20:56.670892 32441 layer_factory.hpp:77] Creating layer conv4_3_norm
I0106 18:20:56.670897 32441 net.cpp:100] Creating Layer conv4_3_norm
I0106 18:20:56.670899 32441 net.cpp:434] conv4_3_norm <- conv4_3_relu4_3_0_split_1
I0106 18:20:56.670902 32441 net.cpp:408] conv4_3_norm -> conv4_3_norm
I0106 18:20:56.670979 32441 net.cpp:150] Setting up conv4_3_norm
I0106 18:20:56.670984 32441 net.cpp:157] Top shape: 1 512 64 64 (2097152)
I0106 18:20:56.670985 32441 net.cpp:165] Memory required for data: 689975328
I0106 18:20:56.670989 32441 layer_factory.hpp:77] Creating layer conv4_3_norm_conv4_3_norm_0_split
I0106 18:20:56.670991 32441 net.cpp:100] Creating Layer conv4_3_norm_conv4_3_norm_0_split
I0106 18:20:56.670994 32441 net.cpp:434] conv4_3_norm_conv4_3_norm_0_split <- conv4_3_norm
I0106 18:20:56.670997 32441 net.cpp:408] conv4_3_norm_conv4_3_norm_0_split -> conv4_3_norm_conv4_3_norm_0_split_0
I0106 18:20:56.671001 32441 net.cpp:408] conv4_3_norm_conv4_3_norm_0_split -> conv4_3_norm_conv4_3_norm_0_split_1
I0106 18:20:56.671005 32441 net.cpp:408] conv4_3_norm_conv4_3_norm_0_split -> conv4_3_norm_conv4_3_norm_0_split_2
I0106 18:20:56.671031 32441 net.cpp:150] Setting up conv4_3_norm_conv4_3_norm_0_split
I0106 18:20:56.671034 32441 net.cpp:157] Top shape: 1 512 64 64 (2097152)
I0106 18:20:56.671037 32441 net.cpp:157] Top shape: 1 512 64 64 (2097152)
I0106 18:20:56.671039 32441 net.cpp:157] Top shape: 1 512 64 64 (2097152)
I0106 18:20:56.671041 32441 net.cpp:165] Memory required for data: 715141152
I0106 18:20:56.671043 32441 layer_factory.hpp:77] Creating layer conv4_3_norm_mbox_loc
I0106 18:20:56.671051 32441 net.cpp:100] Creating Layer conv4_3_norm_mbox_loc
I0106 18:20:56.671052 32441 net.cpp:434] conv4_3_norm_mbox_loc <- conv4_3_norm_conv4_3_norm_0_split_0
I0106 18:20:56.671056 32441 net.cpp:408] conv4_3_norm_mbox_loc -> conv4_3_norm_mbox_loc
I0106 18:20:56.672427 32441 net.cpp:150] Setting up conv4_3_norm_mbox_loc
I0106 18:20:56.672444 32441 net.cpp:157] Top shape: 1 16 64 64 (65536)
I0106 18:20:56.672448 32441 net.cpp:165] Memory required for data: 715403296
I0106 18:20:56.672452 32441 layer_factory.hpp:77] Creating layer conv4_3_norm_mbox_loc_perm
I0106 18:20:56.672459 32441 net.cpp:100] Creating Layer conv4_3_norm_mbox_loc_perm
I0106 18:20:56.672462 32441 net.cpp:434] conv4_3_norm_mbox_loc_perm <- conv4_3_norm_mbox_loc
I0106 18:20:56.672466 32441 net.cpp:408] conv4_3_norm_mbox_loc_perm -> conv4_3_norm_mbox_loc_perm
I0106 18:20:56.672528 32441 net.cpp:150] Setting up conv4_3_norm_mbox_loc_perm
I0106 18:20:56.672531 32441 net.cpp:157] Top shape: 1 64 64 16 (65536)
I0106 18:20:56.672533 32441 net.cpp:165] Memory required for data: 715665440
I0106 18:20:56.672535 32441 layer_factory.hpp:77] Creating layer conv4_3_norm_mbox_loc_flat
I0106 18:20:56.672540 32441 net.cpp:100] Creating Layer conv4_3_norm_mbox_loc_flat
I0106 18:20:56.672542 32441 net.cpp:434] conv4_3_norm_mbox_loc_flat <- conv4_3_norm_mbox_loc_perm
I0106 18:20:56.672545 32441 net.cpp:408] conv4_3_norm_mbox_loc_flat -> conv4_3_norm_mbox_loc_flat
I0106 18:20:56.672564 32441 net.cpp:150] Setting up conv4_3_norm_mbox_loc_flat
I0106 18:20:56.672565 32441 net.cpp:157] Top shape: 1 65536 (65536)
I0106 18:20:56.672567 32441 net.cpp:165] Memory required for data: 715927584
I0106 18:20:56.672569 32441 layer_factory.hpp:77] Creating layer conv4_3_norm_mbox_conf
I0106 18:20:56.672578 32441 net.cpp:100] Creating Layer conv4_3_norm_mbox_conf
I0106 18:20:56.672581 32441 net.cpp:434] conv4_3_norm_mbox_conf <- conv4_3_norm_conv4_3_norm_0_split_1
I0106 18:20:56.672585 32441 net.cpp:408] conv4_3_norm_mbox_conf -> conv4_3_norm_mbox_conf
I0106 18:20:56.674901 32441 net.cpp:150] Setting up conv4_3_norm_mbox_conf
I0106 18:20:56.674911 32441 net.cpp:157] Top shape: 1 8 64 64 (32768)
I0106 18:20:56.674914 32441 net.cpp:165] Memory required for data: 716058656
I0106 18:20:56.674919 32441 layer_factory.hpp:77] Creating layer conv4_3_norm_mbox_conf_perm
I0106 18:20:56.674924 32441 net.cpp:100] Creating Layer conv4_3_norm_mbox_conf_perm
I0106 18:20:56.674927 32441 net.cpp:434] conv4_3_norm_mbox_conf_perm <- conv4_3_norm_mbox_conf
I0106 18:20:56.674930 32441 net.cpp:408] conv4_3_norm_mbox_conf_perm -> conv4_3_norm_mbox_conf_perm
I0106 18:20:56.674988 32441 net.cpp:150] Setting up conv4_3_norm_mbox_conf_perm
I0106 18:20:56.674991 32441 net.cpp:157] Top shape: 1 64 64 8 (32768)
I0106 18:20:56.674993 32441 net.cpp:165] Memory required for data: 716189728
I0106 18:20:56.674995 32441 layer_factory.hpp:77] Creating layer conv4_3_norm_mbox_conf_flat
I0106 18:20:56.675000 32441 net.cpp:100] Creating Layer conv4_3_norm_mbox_conf_flat
I0106 18:20:56.675002 32441 net.cpp:434] conv4_3_norm_mbox_conf_flat <- conv4_3_norm_mbox_conf_perm
I0106 18:20:56.675005 32441 net.cpp:408] conv4_3_norm_mbox_conf_flat -> conv4_3_norm_mbox_conf_flat
I0106 18:20:56.675020 32441 net.cpp:150] Setting up conv4_3_norm_mbox_conf_flat
I0106 18:20:56.675022 32441 net.cpp:157] Top shape: 1 32768 (32768)
I0106 18:20:56.675025 32441 net.cpp:165] Memory required for data: 716320800
I0106 18:20:56.675026 32441 layer_factory.hpp:77] Creating layer conv4_3_norm_mbox_priorbox
I0106 18:20:56.675032 32441 net.cpp:100] Creating Layer conv4_3_norm_mbox_priorbox
I0106 18:20:56.675035 32441 net.cpp:434] conv4_3_norm_mbox_priorbox <- conv4_3_norm_conv4_3_norm_0_split_2
I0106 18:20:56.675038 32441 net.cpp:434] conv4_3_norm_mbox_priorbox <- data_data_0_split_1
I0106 18:20:56.675042 32441 net.cpp:408] conv4_3_norm_mbox_priorbox -> conv4_3_norm_mbox_priorbox
I0106 18:20:56.675062 32441 net.cpp:150] Setting up conv4_3_norm_mbox_priorbox
I0106 18:20:56.675065 32441 net.cpp:157] Top shape: 1 2 65536 (131072)
I0106 18:20:56.675069 32441 net.cpp:165] Memory required for data: 716845088
I0106 18:20:56.675071 32441 layer_factory.hpp:77] Creating layer fc7_mbox_loc
I0106 18:20:56.675077 32441 net.cpp:100] Creating Layer fc7_mbox_loc
I0106 18:20:56.675081 32441 net.cpp:434] fc7_mbox_loc <- fc7_relu7_0_split_1
I0106 18:20:56.675084 32441 net.cpp:408] fc7_mbox_loc -> fc7_mbox_loc
I0106 18:20:56.677069 32441 net.cpp:150] Setting up fc7_mbox_loc
I0106 18:20:56.677078 32441 net.cpp:157] Top shape: 1 24 32 32 (24576)
I0106 18:20:56.677083 32441 net.cpp:165] Memory required for data: 716943392
I0106 18:20:56.677086 32441 layer_factory.hpp:77] Creating layer fc7_mbox_loc_perm
I0106 18:20:56.677093 32441 net.cpp:100] Creating Layer fc7_mbox_loc_perm
I0106 18:20:56.677096 32441 net.cpp:434] fc7_mbox_loc_perm <- fc7_mbox_loc
I0106 18:20:56.677099 32441 net.cpp:408] fc7_mbox_loc_perm -> fc7_mbox_loc_perm
I0106 18:20:56.677165 32441 net.cpp:150] Setting up fc7_mbox_loc_perm
I0106 18:20:56.677168 32441 net.cpp:157] Top shape: 1 32 32 24 (24576)
I0106 18:20:56.677171 32441 net.cpp:165] Memory required for data: 717041696
I0106 18:20:56.677172 32441 layer_factory.hpp:77] Creating layer fc7_mbox_loc_flat
I0106 18:20:56.677176 32441 net.cpp:100] Creating Layer fc7_mbox_loc_flat
I0106 18:20:56.677178 32441 net.cpp:434] fc7_mbox_loc_flat <- fc7_mbox_loc_perm
I0106 18:20:56.677181 32441 net.cpp:408] fc7_mbox_loc_flat -> fc7_mbox_loc_flat
I0106 18:20:56.677194 32441 net.cpp:150] Setting up fc7_mbox_loc_flat
I0106 18:20:56.677198 32441 net.cpp:157] Top shape: 1 24576 (24576)
I0106 18:20:56.677201 32441 net.cpp:165] Memory required for data: 717140000
I0106 18:20:56.677201 32441 layer_factory.hpp:77] Creating layer fc7_mbox_conf
I0106 18:20:56.677207 32441 net.cpp:100] Creating Layer fc7_mbox_conf
I0106 18:20:56.677211 32441 net.cpp:434] fc7_mbox_conf <- fc7_relu7_0_split_2
I0106 18:20:56.677214 32441 net.cpp:408] fc7_mbox_conf -> fc7_mbox_conf
I0106 18:20:56.678866 32441 net.cpp:150] Setting up fc7_mbox_conf
I0106 18:20:56.678875 32441 net.cpp:157] Top shape: 1 12 32 32 (12288)
I0106 18:20:56.678879 32441 net.cpp:165] Memory required for data: 717189152
I0106 18:20:56.678884 32441 layer_factory.hpp:77] Creating layer fc7_mbox_conf_perm
I0106 18:20:56.678906 32441 net.cpp:100] Creating Layer fc7_mbox_conf_perm
I0106 18:20:56.678910 32441 net.cpp:434] fc7_mbox_conf_perm <- fc7_mbox_conf
I0106 18:20:56.678913 32441 net.cpp:408] fc7_mbox_conf_perm -> fc7_mbox_conf_perm
I0106 18:20:56.678975 32441 net.cpp:150] Setting up fc7_mbox_conf_perm
I0106 18:20:56.678979 32441 net.cpp:157] Top shape: 1 32 32 12 (12288)
I0106 18:20:56.678984 32441 net.cpp:165] Memory required for data: 717238304
I0106 18:20:56.678987 32441 layer_factory.hpp:77] Creating layer fc7_mbox_conf_flat
I0106 18:20:56.678990 32441 net.cpp:100] Creating Layer fc7_mbox_conf_flat
I0106 18:20:56.678994 32441 net.cpp:434] fc7_mbox_conf_flat <- fc7_mbox_conf_perm
I0106 18:20:56.678997 32441 net.cpp:408] fc7_mbox_conf_flat -> fc7_mbox_conf_flat
I0106 18:20:56.679013 32441 net.cpp:150] Setting up fc7_mbox_conf_flat
I0106 18:20:56.679016 32441 net.cpp:157] Top shape: 1 12288 (12288)
I0106 18:20:56.679018 32441 net.cpp:165] Memory required for data: 717287456
I0106 18:20:56.679020 32441 layer_factory.hpp:77] Creating layer fc7_mbox_priorbox
I0106 18:20:56.679028 32441 net.cpp:100] Creating Layer fc7_mbox_priorbox
I0106 18:20:56.679031 32441 net.cpp:434] fc7_mbox_priorbox <- fc7_relu7_0_split_3
I0106 18:20:56.679034 32441 net.cpp:434] fc7_mbox_priorbox <- data_data_0_split_2
I0106 18:20:56.679039 32441 net.cpp:408] fc7_mbox_priorbox -> fc7_mbox_priorbox
I0106 18:20:56.679055 32441 net.cpp:150] Setting up fc7_mbox_priorbox
I0106 18:20:56.679059 32441 net.cpp:157] Top shape: 1 2 24576 (49152)
I0106 18:20:56.679062 32441 net.cpp:165] Memory required for data: 717484064
I0106 18:20:56.679064 32441 layer_factory.hpp:77] Creating layer conv6_2_mbox_loc
I0106 18:20:56.679071 32441 net.cpp:100] Creating Layer conv6_2_mbox_loc
I0106 18:20:56.679075 32441 net.cpp:434] conv6_2_mbox_loc <- conv6_2_conv6_2_relu_0_split_1
I0106 18:20:56.679078 32441 net.cpp:408] conv6_2_mbox_loc -> conv6_2_mbox_loc
I0106 18:20:56.681733 32441 net.cpp:150] Setting up conv6_2_mbox_loc
I0106 18:20:56.681747 32441 net.cpp:157] Top shape: 1 24 16 16 (6144)
I0106 18:20:56.681751 32441 net.cpp:165] Memory required for data: 717508640
I0106 18:20:56.681756 32441 layer_factory.hpp:77] Creating layer conv6_2_mbox_loc_perm
I0106 18:20:56.681778 32441 net.cpp:100] Creating Layer conv6_2_mbox_loc_perm
I0106 18:20:56.681782 32441 net.cpp:434] conv6_2_mbox_loc_perm <- conv6_2_mbox_loc
I0106 18:20:56.681785 32441 net.cpp:408] conv6_2_mbox_loc_perm -> conv6_2_mbox_loc_perm
I0106 18:20:56.681905 32441 net.cpp:150] Setting up conv6_2_mbox_loc_perm
I0106 18:20:56.681910 32441 net.cpp:157] Top shape: 1 16 16 24 (6144)
I0106 18:20:56.681912 32441 net.cpp:165] Memory required for data: 717533216
I0106 18:20:56.681915 32441 layer_factory.hpp:77] Creating layer conv6_2_mbox_loc_flat
I0106 18:20:56.681919 32441 net.cpp:100] Creating Layer conv6_2_mbox_loc_flat
I0106 18:20:56.681921 32441 net.cpp:434] conv6_2_mbox_loc_flat <- conv6_2_mbox_loc_perm
I0106 18:20:56.681924 32441 net.cpp:408] conv6_2_mbox_loc_flat -> conv6_2_mbox_loc_flat
I0106 18:20:56.681939 32441 net.cpp:150] Setting up conv6_2_mbox_loc_flat
I0106 18:20:56.681943 32441 net.cpp:157] Top shape: 1 6144 (6144)
I0106 18:20:56.681946 32441 net.cpp:165] Memory required for data: 717557792
I0106 18:20:56.681947 32441 layer_factory.hpp:77] Creating layer conv6_2_mbox_conf
I0106 18:20:56.681953 32441 net.cpp:100] Creating Layer conv6_2_mbox_conf
I0106 18:20:56.681957 32441 net.cpp:434] conv6_2_mbox_conf <- conv6_2_conv6_2_relu_0_split_2
I0106 18:20:56.681962 32441 net.cpp:408] conv6_2_mbox_conf -> conv6_2_mbox_conf
I0106 18:20:56.683277 32441 net.cpp:150] Setting up conv6_2_mbox_conf
I0106 18:20:56.683286 32441 net.cpp:157] Top shape: 1 12 16 16 (3072)
I0106 18:20:56.683290 32441 net.cpp:165] Memory required for data: 717570080
I0106 18:20:56.683295 32441 layer_factory.hpp:77] Creating layer conv6_2_mbox_conf_perm
I0106 18:20:56.683300 32441 net.cpp:100] Creating Layer conv6_2_mbox_conf_perm
I0106 18:20:56.683302 32441 net.cpp:434] conv6_2_mbox_conf_perm <- conv6_2_mbox_conf
I0106 18:20:56.683305 32441 net.cpp:408] conv6_2_mbox_conf_perm -> conv6_2_mbox_conf_perm
I0106 18:20:56.683362 32441 net.cpp:150] Setting up conv6_2_mbox_conf_perm
I0106 18:20:56.683367 32441 net.cpp:157] Top shape: 1 16 16 12 (3072)
I0106 18:20:56.683368 32441 net.cpp:165] Memory required for data: 717582368
I0106 18:20:56.683370 32441 layer_factory.hpp:77] Creating layer conv6_2_mbox_conf_flat
I0106 18:20:56.683377 32441 net.cpp:100] Creating Layer conv6_2_mbox_conf_flat
I0106 18:20:56.683378 32441 net.cpp:434] conv6_2_mbox_conf_flat <- conv6_2_mbox_conf_perm
I0106 18:20:56.683382 32441 net.cpp:408] conv6_2_mbox_conf_flat -> conv6_2_mbox_conf_flat
I0106 18:20:56.683395 32441 net.cpp:150] Setting up conv6_2_mbox_conf_flat
I0106 18:20:56.683398 32441 net.cpp:157] Top shape: 1 3072 (3072)
I0106 18:20:56.683399 32441 net.cpp:165] Memory required for data: 717594656
I0106 18:20:56.683401 32441 layer_factory.hpp:77] Creating layer conv6_2_mbox_priorbox
I0106 18:20:56.683406 32441 net.cpp:100] Creating Layer conv6_2_mbox_priorbox
I0106 18:20:56.683410 32441 net.cpp:434] conv6_2_mbox_priorbox <- conv6_2_conv6_2_relu_0_split_3
I0106 18:20:56.683413 32441 net.cpp:434] conv6_2_mbox_priorbox <- data_data_0_split_3
I0106 18:20:56.683418 32441 net.cpp:408] conv6_2_mbox_priorbox -> conv6_2_mbox_priorbox
I0106 18:20:56.683434 32441 net.cpp:150] Setting up conv6_2_mbox_priorbox
I0106 18:20:56.683436 32441 net.cpp:157] Top shape: 1 2 6144 (12288)
I0106 18:20:56.683440 32441 net.cpp:165] Memory required for data: 717643808
I0106 18:20:56.683442 32441 layer_factory.hpp:77] Creating layer conv7_2_mbox_loc
I0106 18:20:56.683450 32441 net.cpp:100] Creating Layer conv7_2_mbox_loc
I0106 18:20:56.683454 32441 net.cpp:434] conv7_2_mbox_loc <- conv7_2_conv7_2_relu_0_split_1
I0106 18:20:56.683457 32441 net.cpp:408] conv7_2_mbox_loc -> conv7_2_mbox_loc
I0106 18:20:56.684878 32441 net.cpp:150] Setting up conv7_2_mbox_loc
I0106 18:20:56.684886 32441 net.cpp:157] Top shape: 1 24 8 8 (1536)
I0106 18:20:56.684891 32441 net.cpp:165] Memory required for data: 717649952
I0106 18:20:56.684895 32441 layer_factory.hpp:77] Creating layer conv7_2_mbox_loc_perm
I0106 18:20:56.684902 32441 net.cpp:100] Creating Layer conv7_2_mbox_loc_perm
I0106 18:20:56.684916 32441 net.cpp:434] conv7_2_mbox_loc_perm <- conv7_2_mbox_loc
I0106 18:20:56.684921 32441 net.cpp:408] conv7_2_mbox_loc_perm -> conv7_2_mbox_loc_perm
I0106 18:20:56.684985 32441 net.cpp:150] Setting up conv7_2_mbox_loc_perm
I0106 18:20:56.684989 32441 net.cpp:157] Top shape: 1 8 8 24 (1536)
I0106 18:20:56.684993 32441 net.cpp:165] Memory required for data: 717656096
I0106 18:20:56.684994 32441 layer_factory.hpp:77] Creating layer conv7_2_mbox_loc_flat
I0106 18:20:56.684999 32441 net.cpp:100] Creating Layer conv7_2_mbox_loc_flat
I0106 18:20:56.685003 32441 net.cpp:434] conv7_2_mbox_loc_flat <- conv7_2_mbox_loc_perm
I0106 18:20:56.685005 32441 net.cpp:408] conv7_2_mbox_loc_flat -> conv7_2_mbox_loc_flat
I0106 18:20:56.685020 32441 net.cpp:150] Setting up conv7_2_mbox_loc_flat
I0106 18:20:56.685024 32441 net.cpp:157] Top shape: 1 1536 (1536)
I0106 18:20:56.685026 32441 net.cpp:165] Memory required for data: 717662240
I0106 18:20:56.685027 32441 layer_factory.hpp:77] Creating layer conv7_2_mbox_conf
I0106 18:20:56.685035 32441 net.cpp:100] Creating Layer conv7_2_mbox_conf
I0106 18:20:56.685039 32441 net.cpp:434] conv7_2_mbox_conf <- conv7_2_conv7_2_relu_0_split_2
I0106 18:20:56.685042 32441 net.cpp:408] conv7_2_mbox_conf -> conv7_2_mbox_conf
I0106 18:20:56.686298 32441 net.cpp:150] Setting up conv7_2_mbox_conf
I0106 18:20:56.686306 32441 net.cpp:157] Top shape: 1 12 8 8 (768)
I0106 18:20:56.686311 32441 net.cpp:165] Memory required for data: 717665312
I0106 18:20:56.686313 32441 layer_factory.hpp:77] Creating layer conv7_2_mbox_conf_perm
I0106 18:20:56.686319 32441 net.cpp:100] Creating Layer conv7_2_mbox_conf_perm
I0106 18:20:56.686321 32441 net.cpp:434] conv7_2_mbox_conf_perm <- conv7_2_mbox_conf
I0106 18:20:56.686326 32441 net.cpp:408] conv7_2_mbox_conf_perm -> conv7_2_mbox_conf_perm
I0106 18:20:56.686388 32441 net.cpp:150] Setting up conv7_2_mbox_conf_perm
I0106 18:20:56.686393 32441 net.cpp:157] Top shape: 1 8 8 12 (768)
I0106 18:20:56.686394 32441 net.cpp:165] Memory required for data: 717668384
I0106 18:20:56.686396 32441 layer_factory.hpp:77] Creating layer conv7_2_mbox_conf_flat
I0106 18:20:56.686400 32441 net.cpp:100] Creating Layer conv7_2_mbox_conf_flat
I0106 18:20:56.686403 32441 net.cpp:434] conv7_2_mbox_conf_flat <- conv7_2_mbox_conf_perm
I0106 18:20:56.686405 32441 net.cpp:408] conv7_2_mbox_conf_flat -> conv7_2_mbox_conf_flat
I0106 18:20:56.686419 32441 net.cpp:150] Setting up conv7_2_mbox_conf_flat
I0106 18:20:56.686422 32441 net.cpp:157] Top shape: 1 768 (768)
I0106 18:20:56.686424 32441 net.cpp:165] Memory required for data: 717671456
I0106 18:20:56.686425 32441 layer_factory.hpp:77] Creating layer conv7_2_mbox_priorbox
I0106 18:20:56.686429 32441 net.cpp:100] Creating Layer conv7_2_mbox_priorbox
I0106 18:20:56.686434 32441 net.cpp:434] conv7_2_mbox_priorbox <- conv7_2_conv7_2_relu_0_split_3
I0106 18:20:56.686437 32441 net.cpp:434] conv7_2_mbox_priorbox <- data_data_0_split_4
I0106 18:20:56.686444 32441 net.cpp:408] conv7_2_mbox_priorbox -> conv7_2_mbox_priorbox
I0106 18:20:56.686460 32441 net.cpp:150] Setting up conv7_2_mbox_priorbox
I0106 18:20:56.686462 32441 net.cpp:157] Top shape: 1 2 1536 (3072)
I0106 18:20:56.686465 32441 net.cpp:165] Memory required for data: 717683744
I0106 18:20:56.686466 32441 layer_factory.hpp:77] Creating layer conv8_2_mbox_loc
I0106 18:20:56.686472 32441 net.cpp:100] Creating Layer conv8_2_mbox_loc
I0106 18:20:56.686475 32441 net.cpp:434] conv8_2_mbox_loc <- conv8_2_conv8_2_relu_0_split_1
I0106 18:20:56.686480 32441 net.cpp:408] conv8_2_mbox_loc -> conv8_2_mbox_loc
I0106 18:20:56.688774 32441 net.cpp:150] Setting up conv8_2_mbox_loc
I0106 18:20:56.688783 32441 net.cpp:157] Top shape: 1 16 6 6 (576)
I0106 18:20:56.688786 32441 net.cpp:165] Memory required for data: 717686048
I0106 18:20:56.688796 32441 layer_factory.hpp:77] Creating layer conv8_2_mbox_loc_perm
I0106 18:20:56.688802 32441 net.cpp:100] Creating Layer conv8_2_mbox_loc_perm
I0106 18:20:56.688804 32441 net.cpp:434] conv8_2_mbox_loc_perm <- conv8_2_mbox_loc
I0106 18:20:56.688807 32441 net.cpp:408] conv8_2_mbox_loc_perm -> conv8_2_mbox_loc_perm
I0106 18:20:56.688880 32441 net.cpp:150] Setting up conv8_2_mbox_loc_perm
I0106 18:20:56.688885 32441 net.cpp:157] Top shape: 1 6 6 16 (576)
I0106 18:20:56.688887 32441 net.cpp:165] Memory required for data: 717688352
I0106 18:20:56.688889 32441 layer_factory.hpp:77] Creating layer conv8_2_mbox_loc_flat
I0106 18:20:56.688894 32441 net.cpp:100] Creating Layer conv8_2_mbox_loc_flat
I0106 18:20:56.688896 32441 net.cpp:434] conv8_2_mbox_loc_flat <- conv8_2_mbox_loc_perm
I0106 18:20:56.688899 32441 net.cpp:408] conv8_2_mbox_loc_flat -> conv8_2_mbox_loc_flat
I0106 18:20:56.688913 32441 net.cpp:150] Setting up conv8_2_mbox_loc_flat
I0106 18:20:56.688916 32441 net.cpp:157] Top shape: 1 576 (576)
I0106 18:20:56.688918 32441 net.cpp:165] Memory required for data: 717690656
I0106 18:20:56.688920 32441 layer_factory.hpp:77] Creating layer conv8_2_mbox_conf
I0106 18:20:56.688925 32441 net.cpp:100] Creating Layer conv8_2_mbox_conf
I0106 18:20:56.688930 32441 net.cpp:434] conv8_2_mbox_conf <- conv8_2_conv8_2_relu_0_split_2
I0106 18:20:56.688933 32441 net.cpp:408] conv8_2_mbox_conf -> conv8_2_mbox_conf
I0106 18:20:56.690155 32441 net.cpp:150] Setting up conv8_2_mbox_conf
I0106 18:20:56.690163 32441 net.cpp:157] Top shape: 1 8 6 6 (288)
I0106 18:20:56.690166 32441 net.cpp:165] Memory required for data: 717691808
I0106 18:20:56.690171 32441 layer_factory.hpp:77] Creating layer conv8_2_mbox_conf_perm
I0106 18:20:56.690176 32441 net.cpp:100] Creating Layer conv8_2_mbox_conf_perm
I0106 18:20:56.690178 32441 net.cpp:434] conv8_2_mbox_conf_perm <- conv8_2_mbox_conf
I0106 18:20:56.690181 32441 net.cpp:408] conv8_2_mbox_conf_perm -> conv8_2_mbox_conf_perm
I0106 18:20:56.690246 32441 net.cpp:150] Setting up conv8_2_mbox_conf_perm
I0106 18:20:56.690250 32441 net.cpp:157] Top shape: 1 6 6 8 (288)
I0106 18:20:56.690253 32441 net.cpp:165] Memory required for data: 717692960
I0106 18:20:56.690255 32441 layer_factory.hpp:77] Creating layer conv8_2_mbox_conf_flat
I0106 18:20:56.690260 32441 net.cpp:100] Creating Layer conv8_2_mbox_conf_flat
I0106 18:20:56.690263 32441 net.cpp:434] conv8_2_mbox_conf_flat <- conv8_2_mbox_conf_perm
I0106 18:20:56.690266 32441 net.cpp:408] conv8_2_mbox_conf_flat -> conv8_2_mbox_conf_flat
I0106 18:20:56.690280 32441 net.cpp:150] Setting up conv8_2_mbox_conf_flat
I0106 18:20:56.690284 32441 net.cpp:157] Top shape: 1 288 (288)
I0106 18:20:56.690285 32441 net.cpp:165] Memory required for data: 717694112
I0106 18:20:56.690287 32441 layer_factory.hpp:77] Creating layer conv8_2_mbox_priorbox
I0106 18:20:56.690292 32441 net.cpp:100] Creating Layer conv8_2_mbox_priorbox
I0106 18:20:56.690295 32441 net.cpp:434] conv8_2_mbox_priorbox <- conv8_2_conv8_2_relu_0_split_3
I0106 18:20:56.690299 32441 net.cpp:434] conv8_2_mbox_priorbox <- data_data_0_split_5
I0106 18:20:56.690304 32441 net.cpp:408] conv8_2_mbox_priorbox -> conv8_2_mbox_priorbox
I0106 18:20:56.690320 32441 net.cpp:150] Setting up conv8_2_mbox_priorbox
I0106 18:20:56.690322 32441 net.cpp:157] Top shape: 1 2 576 (1152)
I0106 18:20:56.690325 32441 net.cpp:165] Memory required for data: 717698720
I0106 18:20:56.690326 32441 layer_factory.hpp:77] Creating layer conv9_2_mbox_loc
I0106 18:20:56.690333 32441 net.cpp:100] Creating Layer conv9_2_mbox_loc
I0106 18:20:56.690336 32441 net.cpp:434] conv9_2_mbox_loc <- conv9_2_conv9_2_relu_0_split_0
I0106 18:20:56.690340 32441 net.cpp:408] conv9_2_mbox_loc -> conv9_2_mbox_loc
I0106 18:20:56.691689 32441 net.cpp:150] Setting up conv9_2_mbox_loc
I0106 18:20:56.691697 32441 net.cpp:157] Top shape: 1 16 4 4 (256)
I0106 18:20:56.691700 32441 net.cpp:165] Memory required for data: 717699744
I0106 18:20:56.691704 32441 layer_factory.hpp:77] Creating layer conv9_2_mbox_loc_perm
I0106 18:20:56.691710 32441 net.cpp:100] Creating Layer conv9_2_mbox_loc_perm
I0106 18:20:56.691712 32441 net.cpp:434] conv9_2_mbox_loc_perm <- conv9_2_mbox_loc
I0106 18:20:56.691716 32441 net.cpp:408] conv9_2_mbox_loc_perm -> conv9_2_mbox_loc_perm
I0106 18:20:56.691776 32441 net.cpp:150] Setting up conv9_2_mbox_loc_perm
I0106 18:20:56.691789 32441 net.cpp:157] Top shape: 1 4 4 16 (256)
I0106 18:20:56.691792 32441 net.cpp:165] Memory required for data: 717700768
I0106 18:20:56.691794 32441 layer_factory.hpp:77] Creating layer conv9_2_mbox_loc_flat
I0106 18:20:56.691799 32441 net.cpp:100] Creating Layer conv9_2_mbox_loc_flat
I0106 18:20:56.691802 32441 net.cpp:434] conv9_2_mbox_loc_flat <- conv9_2_mbox_loc_perm
I0106 18:20:56.691804 32441 net.cpp:408] conv9_2_mbox_loc_flat -> conv9_2_mbox_loc_flat
I0106 18:20:56.691819 32441 net.cpp:150] Setting up conv9_2_mbox_loc_flat
I0106 18:20:56.691823 32441 net.cpp:157] Top shape: 1 256 (256)
I0106 18:20:56.691824 32441 net.cpp:165] Memory required for data: 717701792
I0106 18:20:56.691825 32441 layer_factory.hpp:77] Creating layer conv9_2_mbox_conf
I0106 18:20:56.691833 32441 net.cpp:100] Creating Layer conv9_2_mbox_conf
I0106 18:20:56.691836 32441 net.cpp:434] conv9_2_mbox_conf <- conv9_2_conv9_2_relu_0_split_1
I0106 18:20:56.691839 32441 net.cpp:408] conv9_2_mbox_conf -> conv9_2_mbox_conf
I0106 18:20:56.693904 32441 net.cpp:150] Setting up conv9_2_mbox_conf
I0106 18:20:56.693913 32441 net.cpp:157] Top shape: 1 8 4 4 (128)
I0106 18:20:56.693917 32441 net.cpp:165] Memory required for data: 717702304
I0106 18:20:56.693920 32441 layer_factory.hpp:77] Creating layer conv9_2_mbox_conf_perm
I0106 18:20:56.693926 32441 net.cpp:100] Creating Layer conv9_2_mbox_conf_perm
I0106 18:20:56.693928 32441 net.cpp:434] conv9_2_mbox_conf_perm <- conv9_2_mbox_conf
I0106 18:20:56.693933 32441 net.cpp:408] conv9_2_mbox_conf_perm -> conv9_2_mbox_conf_perm
I0106 18:20:56.693992 32441 net.cpp:150] Setting up conv9_2_mbox_conf_perm
I0106 18:20:56.693996 32441 net.cpp:157] Top shape: 1 4 4 8 (128)
I0106 18:20:56.693998 32441 net.cpp:165] Memory required for data: 717702816
I0106 18:20:56.694000 32441 layer_factory.hpp:77] Creating layer conv9_2_mbox_conf_flat
I0106 18:20:56.694003 32441 net.cpp:100] Creating Layer conv9_2_mbox_conf_flat
I0106 18:20:56.694005 32441 net.cpp:434] conv9_2_mbox_conf_flat <- conv9_2_mbox_conf_perm
I0106 18:20:56.694008 32441 net.cpp:408] conv9_2_mbox_conf_flat -> conv9_2_mbox_conf_flat
I0106 18:20:56.694025 32441 net.cpp:150] Setting up conv9_2_mbox_conf_flat
I0106 18:20:56.694028 32441 net.cpp:157] Top shape: 1 128 (128)
I0106 18:20:56.694031 32441 net.cpp:165] Memory required for data: 717703328
I0106 18:20:56.694032 32441 layer_factory.hpp:77] Creating layer conv9_2_mbox_priorbox
I0106 18:20:56.694036 32441 net.cpp:100] Creating Layer conv9_2_mbox_priorbox
I0106 18:20:56.694037 32441 net.cpp:434] conv9_2_mbox_priorbox <- conv9_2_conv9_2_relu_0_split_2
I0106 18:20:56.694043 32441 net.cpp:434] conv9_2_mbox_priorbox <- data_data_0_split_6
I0106 18:20:56.694047 32441 net.cpp:408] conv9_2_mbox_priorbox -> conv9_2_mbox_priorbox
I0106 18:20:56.694065 32441 net.cpp:150] Setting up conv9_2_mbox_priorbox
I0106 18:20:56.694068 32441 net.cpp:157] Top shape: 1 2 256 (512)
I0106 18:20:56.694070 32441 net.cpp:165] Memory required for data: 717705376
I0106 18:20:56.694072 32441 layer_factory.hpp:77] Creating layer mbox_loc
I0106 18:20:56.694075 32441 net.cpp:100] Creating Layer mbox_loc
I0106 18:20:56.694078 32441 net.cpp:434] mbox_loc <- conv4_3_norm_mbox_loc_flat
I0106 18:20:56.694082 32441 net.cpp:434] mbox_loc <- fc7_mbox_loc_flat
I0106 18:20:56.694083 32441 net.cpp:434] mbox_loc <- conv6_2_mbox_loc_flat
I0106 18:20:56.694085 32441 net.cpp:434] mbox_loc <- conv7_2_mbox_loc_flat
I0106 18:20:56.694088 32441 net.cpp:434] mbox_loc <- conv8_2_mbox_loc_flat
I0106 18:20:56.694089 32441 net.cpp:434] mbox_loc <- conv9_2_mbox_loc_flat
I0106 18:20:56.694093 32441 net.cpp:408] mbox_loc -> mbox_loc
I0106 18:20:56.694108 32441 net.cpp:150] Setting up mbox_loc
I0106 18:20:56.694110 32441 net.cpp:157] Top shape: 1 98624 (98624)
I0106 18:20:56.694113 32441 net.cpp:165] Memory required for data: 718099872
I0106 18:20:56.694114 32441 layer_factory.hpp:77] Creating layer mbox_conf
I0106 18:20:56.694118 32441 net.cpp:100] Creating Layer mbox_conf
I0106 18:20:56.694121 32441 net.cpp:434] mbox_conf <- conv4_3_norm_mbox_conf_flat
I0106 18:20:56.694134 32441 net.cpp:434] mbox_conf <- fc7_mbox_conf_flat
I0106 18:20:56.694137 32441 net.cpp:434] mbox_conf <- conv6_2_mbox_conf_flat
I0106 18:20:56.694139 32441 net.cpp:434] mbox_conf <- conv7_2_mbox_conf_flat
I0106 18:20:56.694141 32441 net.cpp:434] mbox_conf <- conv8_2_mbox_conf_flat
I0106 18:20:56.694144 32441 net.cpp:434] mbox_conf <- conv9_2_mbox_conf_flat
I0106 18:20:56.694149 32441 net.cpp:408] mbox_conf -> mbox_conf
I0106 18:20:56.694164 32441 net.cpp:150] Setting up mbox_conf
I0106 18:20:56.694166 32441 net.cpp:157] Top shape: 1 49312 (49312)
I0106 18:20:56.694169 32441 net.cpp:165] Memory required for data: 718297120
I0106 18:20:56.694171 32441 layer_factory.hpp:77] Creating layer mbox_priorbox
I0106 18:20:56.694175 32441 net.cpp:100] Creating Layer mbox_priorbox
I0106 18:20:56.694178 32441 net.cpp:434] mbox_priorbox <- conv4_3_norm_mbox_priorbox
I0106 18:20:56.694181 32441 net.cpp:434] mbox_priorbox <- fc7_mbox_priorbox
I0106 18:20:56.694185 32441 net.cpp:434] mbox_priorbox <- conv6_2_mbox_priorbox
I0106 18:20:56.694186 32441 net.cpp:434] mbox_priorbox <- conv7_2_mbox_priorbox
I0106 18:20:56.694190 32441 net.cpp:434] mbox_priorbox <- conv8_2_mbox_priorbox
I0106 18:20:56.694192 32441 net.cpp:434] mbox_priorbox <- conv9_2_mbox_priorbox
I0106 18:20:56.694195 32441 net.cpp:408] mbox_priorbox -> mbox_priorbox
I0106 18:20:56.694211 32441 net.cpp:150] Setting up mbox_priorbox
I0106 18:20:56.694213 32441 net.cpp:157] Top shape: 1 2 98624 (197248)
I0106 18:20:56.694217 32441 net.cpp:165] Memory required for data: 719086112
I0106 18:20:56.694219 32441 layer_factory.hpp:77] Creating layer mbox_conf_reshape
I0106 18:20:56.694226 32441 net.cpp:100] Creating Layer mbox_conf_reshape
I0106 18:20:56.694228 32441 net.cpp:434] mbox_conf_reshape <- mbox_conf
I0106 18:20:56.694231 32441 net.cpp:408] mbox_conf_reshape -> mbox_conf_reshape
I0106 18:20:56.694252 32441 net.cpp:150] Setting up mbox_conf_reshape
I0106 18:20:56.694254 32441 net.cpp:157] Top shape: 1 24656 2 (49312)
I0106 18:20:56.694258 32441 net.cpp:165] Memory required for data: 719283360
I0106 18:20:56.694260 32441 layer_factory.hpp:77] Creating layer mbox_conf_softmax
I0106 18:20:56.694264 32441 net.cpp:100] Creating Layer mbox_conf_softmax
I0106 18:20:56.694267 32441 net.cpp:434] mbox_conf_softmax <- mbox_conf_reshape
I0106 18:20:56.694270 32441 net.cpp:408] mbox_conf_softmax -> mbox_conf_softmax
I0106 18:20:56.694628 32441 net.cpp:150] Setting up mbox_conf_softmax
I0106 18:20:56.694635 32441 net.cpp:157] Top shape: 1 24656 2 (49312)
I0106 18:20:56.694638 32441 net.cpp:165] Memory required for data: 719480608
I0106 18:20:56.694640 32441 layer_factory.hpp:77] Creating layer mbox_conf_flatten
I0106 18:20:56.694644 32441 net.cpp:100] Creating Layer mbox_conf_flatten
I0106 18:20:56.694646 32441 net.cpp:434] mbox_conf_flatten <- mbox_conf_softmax
I0106 18:20:56.694650 32441 net.cpp:408] mbox_conf_flatten -> mbox_conf_flatten
I0106 18:20:56.694666 32441 net.cpp:150] Setting up mbox_conf_flatten
I0106 18:20:56.694669 32441 net.cpp:157] Top shape: 1 49312 (49312)
I0106 18:20:56.694671 32441 net.cpp:165] Memory required for data: 719677856
I0106 18:20:56.694672 32441 layer_factory.hpp:77] Creating layer detection_out
I0106 18:20:56.694689 32441 net.cpp:100] Creating Layer detection_out
I0106 18:20:56.694692 32441 net.cpp:434] detection_out <- mbox_loc
I0106 18:20:56.694695 32441 net.cpp:434] detection_out <- mbox_conf_flatten
I0106 18:20:56.694697 32441 net.cpp:434] detection_out <- mbox_priorbox
I0106 18:20:56.694701 32441 net.cpp:408] detection_out -> detection_out
W0106 18:20:56.694733 32441 detection_output_layer.cpp:49] Failed to create directory: /home/qif/PycharmProjects/caffe_detection/working_dir/meter/det_result/SSD_512x512
I0106 18:20:56.695449 32441 net.cpp:150] Setting up detection_out
I0106 18:20:56.695456 32441 net.cpp:157] Top shape: 1 1 1 7 (7)
I0106 18:20:56.695459 32441 net.cpp:165] Memory required for data: 719677884
I0106 18:20:56.695461 32441 layer_factory.hpp:77] Creating layer detection_eval
I0106 18:20:56.695467 32441 net.cpp:100] Creating Layer detection_eval
I0106 18:20:56.695478 32441 net.cpp:434] detection_eval <- detection_out
I0106 18:20:56.695482 32441 net.cpp:434] detection_eval <- label
I0106 18:20:56.695485 32441 net.cpp:408] detection_eval -> detection_eval
I0106 18:20:56.695626 32441 net.cpp:150] Setting up detection_eval
I0106 18:20:56.695631 32441 net.cpp:157] Top shape: 1 1 2 5 (10)
I0106 18:20:56.695632 32441 net.cpp:165] Memory required for data: 719677924
I0106 18:20:56.695634 32441 net.cpp:228] detection_eval does not need backward computation.
I0106 18:20:56.695637 32441 net.cpp:228] detection_out does not need backward computation.
I0106 18:20:56.695639 32441 net.cpp:228] mbox_conf_flatten does not need backward computation.
I0106 18:20:56.695641 32441 net.cpp:228] mbox_conf_softmax does not need backward computation.
…
